P03_FaceRecognition/FaceDetect_MTCNN/model_for_use/onet_epoch_30.pt (torch_old, 901022 bytes, 15 tensors)

pre_layer.0.weight f4 [32, 3, 3, 3]
00000000: 892b c03d 97e7 973b 9ed8 79bd c2ab 9abc
00000010: 5d33 243c faf3 d7bd e5de 8dbd 0b50 293e
00000020: 894c ca3d d33c 153e 3dcc 98bd 3b4d 82bc
00000030: 0ce6 fabc 6ff4 d63c 2111 12be 5462 afbd
00000040: 748e b03d 0aca b1bd 2e1f b93d 2a41 cfbc
00000050: 7744 a2bb 183e 32be 80f8 33be 3b31 683d
00000060: c440 13be 6d30 e03d b459 4b3c 0378 083e
00000070: 078a 453d d56c 88bc 20c2 aa3c 4866 d23d
00000080: 09ea 8fbc 24ab 873d 9133 04be 4410 70bd
00000090: 7d5f 993d 90c7 7f3d 78b9 00be 08e0 f53d
000000a0: 9d80 11be 4938 e7bc 914e e13c 87eb 3dbe
000000b0: b185 c5bd 7ff3 6b3d f26d e73d c3d0 923c
000000c0: df79 733d eb13 ab3c 975d c4bd 2416 b5bd
000000d0: 246c 12bc 519c 30be 6efb 923d a220 1ebe
000000e0: 9858 adbd 42f0 a8bd 084c 92bd d627 fb3c
000000f0: 45aa 0ebc fa31 cdbb cb75 e0bb 3e2a 91bd
00000100: 1ce3 083e e84a 98bc 2de2 313d 5468 b1bc
00000110: 836c 013b 89d6 b5bc 9987 2cbd 33c3 3bbd
00000120: 3e21 333d 74f2 fcbd da42 1cbe 067a 2bbd
00000130: 74a6 20bd fcc1 053e ce69 81bd 02c3 92bd
00000140: 54fe 143e 6675 623d d9d8 05bd 3963 ef3d
00000150: 72a2 ea3c 7e21 dabd 370f ef3d 24c8 d8bd
00000160: 0fd3 cd3d 98c0 7c3d 76ae 0dbe feae d7bc
00000170: 6064 c0bd 9835 603d dfaf 5cbd 1f44 44bd
00000180: 17c2 c0bd ff1f cabd dbdf 06be 62a0 0a3e
00000190: 4738 babb 8c41 de3c 3aff 383b b8f3 523d
000001a0: 9630 36bd 7ee9 0e3c dade 1b3d 8442 18be
000001b0: 3de5 263e 1cf0 14be 79ee ce3d 7a67 5c3c
000001c0: aa12 0c3e a57a 0c3e 968f 083e b697 4a3d
000001d0: 6b1c 893d c0ec 933d bcd7 09bd d429 283d
000001e0: 5207 97bd 284a 0f3e b6ed babd 6523 0fbd
000001f0: b051 e6bb cbc7 ddba 87ef b0bc cc06 97bd
00000200: f4be 23bd b5c5 3cbe ff54 06be b203 8dbd
00000210: a303 303d 8b7d 65bc d16b 22bd 188d fdbd
00000220: 033c 853a 5f24 123e 0877 23be 8fe5 a4bd
00000230: 9897 d03c c735 00be 913f 5c3d b98b a2bd
00000240: 0962 2bbd 609e cebd 8f60 6ebd 3b47 f7bd
00000250: 6d4e ce3c 904f 60bc 9dd5 f23c 9858 38be
00000260: 19c0 53ba f135 043e e4f3 8c3d dab6 7a3d
00000270: 6fe8 93bc 820b 9c3d 2d52 fe3c c653 00be
00000280: ca22 963d 4144 05bd 4aed d53d 4a58 0f3e
00000290: 3cfa 36bc 243e 58bc a947 5b3d c4f9 8fbb
000002a0: 4090 23be 20ef 08be 18e9 b7bd 3c66 a63b
000002b0: a87f 0e3e 9b8b 043e 2b83 ae3d 2d50 94bd
000002c0: b178 acbc c4c9 e6bd 8ff5 60be fd1a a6bd
000002d0: 4ec5 a3bd 28fb 9cbc 2176 1d3e 3fc4 6e3d
000002e0: 0740 44bd 44ef 733a f3eb a63b 3b6e eebd
000002f0: 3819 48bd 25af 1dbd fe47 bebd 2bb0 c43d
00000300: badc 03be c723 b6bd 0162 233d 06d8 0f3e
00000310: 34b6 563d bb47 e9bd c063 77bd 30e4 a93c
00000320: 92a6 a0bc 9989 09be 7572 c73d be67 26be
00000330: 586a 4c3d 7e76 c5bd e737 b33d 983d a03d
00000340: 168c 7f3a 8f9d 0fbd 8bb6 4cbd 3fd8 d93d
00000350: d3a8 e8bd 3a70 0ebd 124f aebc 8d91 613d
00000360: 52db 89bd d835 a83d 3a78 833d ab61 5d3d
00000370: abe3 bb3c 787b a73d 3821 d63c 4b29 e0bc
00000380: 13ec 46bd 38fd 06be 24b1 ddbb 7be3 983b
00000390: abb3 123e 5a9a d23d d9cc 853d 5a98 113e
000003a0: 37c6 1a3d 926c babd 1385 44be c9c3 5fbd
000003b0: f8b6 05bd 07d6 0abe 8279 773c 4fe7 3cbd
000003c0: 5bbe 10be 47d6 4b3c 7361 c63c aa0b c83d
000003d0: 0e35 0b3c c30a a7bd 9328 303e 039d 06be
000003e0: b3d0 f53c 110a 3b3e 79da 123e fc98 10be
000003f0: eb2b bfbb 3581 113c 5f77 bdbd 2d4d 263e
0.09383304 0.004635762 -0.060997598 -0.018880729 0.010022012 -0.10544582 -0.069272794 0.1653444
0.09877879 0.14573984 -0.0746083 -0.015905967 -0.030627273 0.026239602 -0.14264347 -0.085636765
0.08620921 -0.08681114 0.0903915 -0.025299627 -0.0049520093 -0.174065 -0.17575264 0.056687575
-0.14380175 0.109467365 0.012411524 0.13327031 0.048227336 -0.016653458 0.02084452 0.10273415
-0.017567651 0.06624439 -0.12910296 -0.058609262 0.07488916 0.062446177 -0.1257075 0.12005621
-0.14209218 -0.028225081 0.027503284 -0.18546878 -0.0964464 0.057605263 0.11300267 0.017921811
0.059442397 0.020883521 -0.09588163 -0.088421136 -0.008936916 -0.1724713 0.07176863 -0.15442136
-0.084641635 -0.082489505 -0.07143408 0.030658644 -0.008707588 -0.006262061 -0.0068499795 -0.07088135
0.13367885 -0.018590406 0.04342859 -0.021656193 0.0019748516 -0.022197025 -0.042121504 -0.045840453
0.043732874 -0.12350932 -0.15259877 -0.041864417 -0.039221242 0.1306228 -0.06319009 -0.07166101
0.14550143 0.05528774 -0.032677505 0.11688847 0.028641913 -0.106509194 0.11672824 -0.10585049
0.10050022 0.06170711 -0.13836083 -0.02632856 -0.09394145 0.05473861 -0.05387866 -0.047916528
-0.0941202 -0.09869384 -0.13171332 0.13537744 -0.0056829783 0.027130865 0.0028228299 0.05150196
-0.04447993 0.008722661 0.038054325 -0.14869124 0.16298385 -0.1454472 0.10104079 0.013452405
0.13678995 0.1371866 0.13336024 0.04946109 0.066948734 0.07222891 -0.033653006 0.041055515
-0.07374443 0.13993132 -0.09127371 -0.034945864 -0.007028781 -0.0016920505 -0.02159859 -0.07374343
-0.03997703 -0.18434794 -0.13118361 -0.068854704 0.04297222 -0.014006983 -0.039653603 -0.12380427
0.001016498 0.14271687 -0.15963376 -0.08051597 0.02546291 -0.12520514 0.05377156 -0.07936806
-0.04184154 -0.100888014 -0.058197554 -0.12074133 0.02518388 -0.013690844 0.029642874 -0.18002546
-0.0008077636 0.12911202 0.06882456 0.061209537 -0.018055169 0.076193824 0.031045044 -0.12531957
0.07330854 -0.032535795 0.1044565 0.13998523 -0.011168059 -0.013198409 0.053535137 -0.004393788
-0.15972996 -0.13372469 -0.08980006 0.0050781053 0.13915884 0.1294388 0.08521112 -0.07241855
-0.021053644 -0.112689525 -0.21968673 -0.08110616 -0.07996617 -0.01916273 0.15377094 0.058292624
-0.047912624 0.0009305368 0.0050940453 -0.116421185 -0.048852175 -0.03849711 -0.09291075 0.09603914
-0.12877169 -0.08893543 0.039888386 0.1404725 0.052419856 -0.113906346 -0.060397863 0.020738691
-0.019610677 -0.13431396 0.09738628 -0.16250512 0.049906105 -0.09641741 0.08750897 0.07824248
0.00097483525 -0.03506237 -0.049978774 0.10636949 -0.11360326 -0.034774996 -0.021277938 0.05507045
-0.06731285 0.08213395 0.06419416 0.05404822 0.022935709 0.08177847 0.026138887 -0.02736344
-0.04856498 -0.13182533 -0.0067655016 0.0046657897 0.1432635 0.102833465 0.06533212 0.14218274
0.03778669 -0.091027394 -0.19191389 -0.054630075 -0.032645196 -0.13558207 0.015104653 -0.04611903
-0.14135115 0.012441224 0.02421639 0.0976785 0.008496536 -0.081563495 0.17202978 -0.13145833
0.030006742 0.18265559 0.14341153 -0.14120859 -0.005834093 0.008880903 -0.09251284 0.16240378

pre_layer.0.bias f4 [32]
00000000: a9af 633d 3085 233d 6d10 8a3b e4b7 143e
00000010: b79d a63d 7619 d93d 2f85 243d 9a33 603d
00000020: 4ecf a63d ba0e ca3d 01d1 c23d 9be1 823c
00000030: 61fc ddbc d9c2 f43d c9be ce3d 072c ac3c
00000040: 44e3 423c 384f 173e f06d d83c e0fc e73d
00000050: 6115 183d a066 793c d1f7 003d 707c cc3d
00000060: f095 353d ad98 183d 7c13 0d3e b8ba ec3d
00000070: d12e e43d 4741 083d 2cef 213e 7bd3 153e
0.055587444 0.03992194 0.004213384 0.14523274 0.081355505 0.106005594 0.040166076 0.05473671
0.08145009 0.0986609 0.095125206 0.015976718 -0.027097883 0.11951227 0.10094983 0.021017088
0.011895005 0.14776313 0.02641961 0.11327529 0.037129764 0.015222222 0.031486336 0.09984672
0.044332445 0.037254978 0.13776964 0.11559051 0.11141742 0.03326538 0.15813893 0.14631455

pre_layer.3.weight f4 [64, 32, 3, 3]
00000000: f0ce 0c3c fa78 0c3b 630c 86bd 8f02 873d
00000010: 9fa6 aebc f458 82bd 9581 123d 1106 8dbd
00000020: ed46 85bd cb1e 9cbd 4a78 09bd 491c 7cbc
00000030: ab8c 94bd 92e2 b9bd 7bf9 56bd 8323 c9bd
00000040: f110 82bd 117a 693c 3743 883c 5c11 fa3c
00000050: 16cd 983d 6e20 38bd 3643 983d 36e5 a53d
00000060: 5f54 66bd eae5 5a3d 4aa1 853d 09bf a63d
00000070: 66f1 ee3a ed3f 883d 3ed6 64bc c0b3 a93d
00000080: 6330 8ebc b291 383d 9994 28bd f764 eebc
00000090: 5ed2 3fbd 12f8 94bd 46bf a73c 03d5 853d
000000a0: 9182 cfbc dc06 b8bc 366e 32bc 0680 2e3b
000000b0: 37b4 bdbb 97d8 9f3d a50b c83d cd25 2c3d
000000c0: 4783 313d cd7c bf3d c914 6cbc a63a 933d
000000d0: e730 4abd 2e19 0f3d 2334 ecbc 86af f6bd
000000e0: 1e70 70bd 4434 8cbd 3958 f3bd 7bd2 a4bc
000000f0: 4e24 8fbd 7ac4 483d 51f9 abbd 21ae 763c
00000100: 5b19 653d df0c 29bc ccd1 b9bd 5e9c cfba
00000110: 10b2 a83d 0e9c 95bc 04b1 da3c 96d6 bbbd
00000120: b95e 8fbc 7946 463d 56ee b8bd 2c05 ce3c
00000130: f0cb bf3c 248c 66bd 74fd f6bc cff7 b5bc
00000140: 4798 9bbc 8a68 72bd 8925 b93b 0a52 cfbc
00000150: f707 eb3c 9f39 95bc 4c4a cebd 6f7a 34bc
00000160: ed3d 8b3b ae47 12bd 9b99 85bd 858c 133d
00000170: 988f 5c3c e0a4 c4bd fb4a 79bd c8c7 843d
00000180: c12e e2bd 7765 bb3b a783 f63c 0a67 96bd
00000190: e40a 98bd 8e38 19be 7842 153c caeb 14be
000001a0: b08a 12be 9b2f 15bd e96d c9bd 71f3 f1bd
000001b0: 93f0 283b c22b f5bd 81df 7dbd 3372 dfbd
000001c0: 7491 fcbd 52cd 8e3c 1feb faba 932f d53c
000001d0: ea3b bebb 98b3 54bd b83c 33bc 2e8d 57bd
000001e0: 2b0e f4bc 2c60 19be 2435 02bc fa39 35bc
000001f0: 4eb1 ee3c 1199 ad3c 52f6 393d 2e8d d1bd
00000200: 6876 663d 7f8d 80bd a846 eabc 5d44 29bd
00000210: 6a53 50bd 5423 44bd 81d9 933c 525c 58bd
00000220: 3e00 4e3d 4e88 4abc be69 813d 6381 113d
00000230: 5a01 273c cde8 eabc dd3c 43bb 2f49 233c
00000240: fdde 083c f72c ccbd 2f82 a83c 70f7 cfbd
00000250: 5294 96bb cad8 9fbd 0aca 813c 1a04 6f3d
00000260: 7d97 d7bd 887c b5bc c6a1 653d 9def ac3c
00000270: 6f4a d03d 75ea e63c 68fd 463c 2345 003d
00000280: 84ae 33bd 6e95 01bd 7a41 9a3d 9d4a c7bd
00000290: fa54 7a3d 034f 31bd b7ba a93d a4fb 4e3d
000002a0: 8b61 683d eb94 043d d101 58bd 1c1e b4bd
000002b0: 4930 993b 6d45 e3bc a129 fbbd f228 d5bd
000002c0: 0fd9 c9bd d4b5 053d 3b78 7b3a c911 313d
000002d0: 69e5 3ebd 2bfa ba3c e4d0 30bd b527 293d
000002e0: 6ff7 d3bc 4c4d ccbc 3200 043d 0f70 a0bc
000002f0: 7406 0e3d 39af 293d 10ee 2dbd e197 8fbd
00000300: df5d 113d 98fb 31bd f5f9 5cbd ea26 933c
00000310: b91c 723c 1c82 9bbd 9490 e1bc 3f55 663b
00000320: da30 5e3d f266 193d cdc0 e93d 2bff c8bc
00000330: 0579 5ebc eb68 22bd 0d66 2dbd 9394 8ebd
00000340: ab15 9abc 2db9 373d 66ae cfbd 828b 0dbc
00000350: 6afb 1bbd a70a 1bbe 1199 f0bc c603 1fbc
00000360: 7d18 583c e0c5 e3bc 3188 b53d ff5b 7c3c
00000370: 3be7 d2bd e9b8 d8bd 0b56 b3bd e616 9abd
00000380: 68b1 bebd 8e46 f3bc d047 763d c630 153e
00000390: 46c8 893d ce3e a13d dc81 633d 1ec4 cf3d
000003a0: 69e5 8ebd 990f 823d 252d a8bc adde 2d3d
000003b0: baac f4bc 5111 f53c d290 a0bb 035f 263d
000003c0: acac 21bd 6a21 b53d 5240 d33a 7056 79bd
000003d0: a1ec 4fbd c693 55bd 6257 ef3c 2cb4 16bd
000003e0: cd73 94bd 0bcf 25bd 0449 9ebc e6b0 f43a
000003f0: 940e c7bd e327 ba3c 3c0f bf3c 2589 443d
0.00859426 0.0021434412 -0.06545331 0.06592285 -0.021319686 -0.06364623 0.03576811 -0.06885923
-0.06507669 -0.07623061 -0.033561982 -0.015387603 -0.07253393 -0.09076418 -0.052484017 -0.098212264
-0.063508876 0.014250294 0.016633613 0.030525856 0.07460992 -0.044952802 0.074346945 0.08100359
-0.056232806 0.05344192 0.06524904 0.08141906 0.0018229901 0.06652818 -0.013967095 0.08286238
-0.017357057 0.04506082 -0.04115734 -0.029100878 -0.04683148 -0.07273878 0.020476948 0.065347694
-0.025330814 -0.022464208 -0.010890534 0.00266266 -0.0057893055 0.07804983 0.09767846 0.042028237
0.043338086 0.09349976 -0.014409252 0.07188921 -0.049363043 0.034936123 -0.028833454 -0.12045197
-0.058700673 -0.068459064 -0.118820615 -0.020119896 -0.069893464 0.0490155 -0.08397163 0.015056164
0.055932384 -0.01031801 -0.09073219 -0.0015839448 0.08237088 -0.01826289 0.026695736 -0.091717884
-0.017501222 0.04840705 -0.09029834 0.02514895 0.023412675 -0.056285992 -0.030150153 -0.02221289
-0.01899351 -0.059181727 0.0056502265 -0.025307674 0.028690321 -0.018215952 -0.10072765 -0.011015519
0.0042493255 -0.03571289 -0.065234385 0.03602268 0.01346197 -0.0960176 -0.060862523 0.06483418
-0.11044074 0.0057188827 0.030092074 -0.07343872 -0.07423952 -0.1496298 0.009110086 -0.14543071
-0.14310718 -0.036422353 -0.09835417 -0.11814011 0.002577816 -0.11971237 -0.061980728 -0.10910454
-0.123324305 0.017431889 -0.0019143558 0.026023662 -0.005805482 -0.051929086 -0.010939769 -0.052624874
-0.029791912 -0.14978093 -0.00794724 -0.011061186 0.02913728 0.021191152 0.045400925 -0.10232006
0.056265265 -0.06276988 -0.028598145 -0.041324962 -0.0508608 -0.047885254 0.01804805 -0.05282242
0.0502932 -0.012361599 0.06318997 0.035523783 0.010193193 -0.028675461 -0.0029790916 0.009966179
0.008353946 -0.09969514 0.020569889 -0.10154617 -0.004595318 -0.07805021 0.01584341 0.05835352
-0.10526941 -0.022154108 0.056062482 0.02111035 0.10170447 0.02818797 0.012145378 0.031315934
-0.043867603 -0.031636648 0.0753202 -0.09731028 0.061116196 -0.043288242 0.08287566 0.050532952
0.05673365 0.03236858 -0.052736107 -0.087948054 0.0046749455 -0.027743066 -0.122637995 -0.104082
-0.09855854 0.032644108 0.0009592806 0.043229852 -0.0466055 0.022824368 -0.043167964 0.041297633
-0.025874821 -0.024939202 0.03222675 -0.019584684 0.034674123 0.04142687 -0.042463362 -0.070113905
0.035489913 -0.04345283 -0.053949315 0.017962892 0.014777356 -0.07593176 -0.02753476 0.0035146025
0.054245807 0.037451692 0.11413727 -0.024535736 -0.013578658 -0.03965084 -0.04233365 -0.06961932
-0.01880916 0.04485433 -0.10140686 -0.008639218 -0.038081564 -0.15140782 -0.029369863 -0.0097054895
0.013189432 -0.027804315 0.08863867 0.015402793 -0.1029801 -0.10582144 -0.08756646 -0.07523899
-0.09311181 -0.029696729 0.06012708 0.14569387 0.06727652 0.07873307 0.055543765 0.10144828
-0.0697735 0.06350631 -0.02052934 0.04244869 -0.029867519 0.029915484 -0.0049000764 0.040617954
-0.039471313 0.08844264 0.0016117191 -0.06087345 -0.050762776 -0.05214288 0.029216472 -0.03679292
-0.0724865 -0.040480655 -0.019321926 0.0018668442 -0.097195774 0.022724098 0.023322694 0.047982354

pre_layer.3.bias f4 [64]
00000000: c968 b13d b324 863d 4543 7d3d 2f81 393d
00000010: 12e2 693d 7cbd 353d a500 563d a2b3 593d
00000020: 173e 9e3b 1745 583d 2c9f 813c f3e2 a23d
00000030: dc1d 053d cd7d 3d3d 0503 573d ee0f d73b
00000040: 89f7 553d f731 cc3d 41e7 c23d ff10 d53d
00000050: ed4c 823d 7b25 153d 2cf0 af3c e233 953d
00000060: f1a3 483c 4f70 cf3c fc33 993d 3ddc 553d
00000070: 1b94 cb3d 7ac1 153d c255 d13c 98a8 c83d
00000080: eaab 893d 3d2c 963d e70d 763d 50fa 903d
00000090: 254f 693d 57f3 a13d ff67 6b3d 8e28 953d
000000a0: 87cf 213d 4747 5f3d 8d06 9f3d ed82 7d3d
000000b0: e7dc 593d 648a 3a3c 0adf ce3d 1fa1 c83d
000000c0: abed 4d3d e610 103d dd50 a23d ff3a 623c
000000d0: e740 be3d 4898 463d a8eb 7f3d 58dd 033d
000000e0: b705 083d f9df 1e3d c057 ee3c acef d23c
000000f0: e90e bc3d 51ea 9b3c 7ef0 853d 7945 a23d
0.08662564 0.065499686 0.06183173 0.045289215 0.057100363 0.04437016 0.05224671 0.053149827
0.004829179 0.052800264 0.01582297 0.079534434 0.03249918 0.04626255 0.052493114 0.0065631783
0.05223802 0.099704675 0.095167644 0.104036324 0.06362329 0.036412697 0.021476828 0.072852865
0.012246118 0.025322108 0.07480618 0.05221199 0.09940358 0.036561467 0.025553588 0.09797782
0.06722243 0.073326565 0.060071852 0.07078993 0.056960244 0.079077415 0.057472225 0.07283126
0.039504554 0.054511335 0.07764921 0.06189244 0.053189185 0.011385534 0.10101135 0.097963564
0.050275486 0.035172366 0.0792558 0.013808011 0.09289723 0.04848507 0.0624806 0.03219351
0.033208575 0.038787816 0.029094577 0.02574905 0.091825314 0.01903263 0.06540011 0.07923407

pre_layer.6.weight f4 [64, 64, 3, 3]
00000000: dffb a53d d741 653c a1db 353c 18b2 7a3d
00000010: 371e c7bc 2df5 b53c 9c3a b33c 8f22 c03c
00000020: f4ed 0bbb 9375 78bc c3bc bc3d 418f 563d
00000030: 16c0 e63c 13b5 ff3c 7b2a 653b 175c bf3d
00000040: 5705 ca3d 53fc dd3c b3b5 af3d fd00 eebc
00000050: 5320 693d 372e 903d 43d9 533d e13b 263d
00000060: 372d 733d 33e2 993d 0540 683d 4348 1d3d
00000070: 1a34 5ebd 1aa9 503d cf18 a43d 3c73 dcba
00000080: b0b6 2fbc 4561 f73c 306a e83d e8c2 d33c
00000090: e41c 98bc 02af 41bc 6f8d e53c aa98 f93b
000000a0: 6538 7cbd 9863 863d ba0a 51bb 72b9 b83d
000000b0: 2ef0 a53d c7b7 90bd 02ea 42bd a634 edbd
000000c0: f313 03bd 622e cfbd 588b d7bd 8d16 f6bc
000000d0: ea4c 96bd 40d8 b1bd f3fc dbbd 44f2 f5bd
000000e0: d64b 01be 572d abbd 3f43 53bd 2621 01be
000000f0: be8a 15bd aca0 fdba 3026 4abd b510 6bbd
00000100: e5d0 733d 6098 09bd fce1 13bd 4877 efbc
00000110: e50c fe3b 3a4e 98bd 2d86 c33c 2945 3ebd
00000120: 0b6d 2bbd 2c02 b2bd 250b ebbd 1ff3 81bd
00000130: f6a7 2ebd e5a0 b1bd 1dea 8cbd 69b5 87bd
00000140: 433a f7bd 31ba ba3d ebae 6e3d b965 b4bc
00000150: 7212 b6bb a7ac 6a3c 9399 893c cd4f aa3d
00000160: c17f 6fbc 4a4c 6cbc 6bba 913c 93d4 4bbb
00000170: 3835 473c 66dd 4bbd 38d9 b4bc e1c5 1abd
00000180: 6dbc 3d3d e5f3 2d3d 1b25 603b 8540 b0bd
00000190: ad3d 0dbd a2d8 07bc 3e1a c4bb 0e86 aabd
000001a0: 64ae 203d c0d4 d83c 07e0 c1bc a858 09bd
000001b0: 95a2 bcbd 05b2 d5bc 3464 683d 745c 95bd
000001c0: 4a7d 863c c6fc 0bbc 9264 51bd b110 01bd
000001d0: 6ffa 143a 009c 183c 7a46 c83c 02cb 1c3c
000001e0: d353 a3bd 227c 94bc 9e99 b4bc cce3 44bc
000001f0: 9c5f 0f3d af2b 22bd f67b 87bd 11ae ee3b
00000200: 7c2d 21bd f63b 443d b074 903a b9a2 b63d
00000210: 516e 463d 2c15 c63d 4908 d83c b32b 7ebc
00000220: fc01 97bd e13a b23c c09e ee3c a638 04bd
00000230: 35d3 c3bb 1daa b13b 66b8 6c3d cb11 763d
00000240: fbac dbbb 5c1d 933c 7d82 5d3d bf37 11bd
00000250: dca4 9d3d bd49 b83d 85a6 053e 705b 033e
00000260: 12fa d83d 65e7 383c 9696 743d 9670 6e3c
00000270: 5fdf bebc 9231 803d e29d babc c3b7 e8bc
00000280: 1212 b3bc 7f58 b43c 6dea de3c 8e77 683d
00000290: 8ea4 5e3d 7ba2 82bd 7938 97bc 83f1 453d
000002a0: 8e50 7e3c 042a b63d 7e17 fa3d 35c7 94bc
000002b0: 78bc 52bd de85 8fbd 5c6a 3abd 674b 463c
000002c0: d82c 523c 32d6 4abd b988 ff3c a0ce 61bd
000002d0: 4517 fc3c f882 a6bc b491 1ebd 9117 43bd
000002e0: 7c8e 39bd a82f 973d 90ca 1a3d 6be7 c53d
000002f0: 2e35 a33d c22b 013d b6c4 5cbc 5151 01be
00000300: 9605 09bd cbcf bbbd a923 bb3c c03e e63d
00000310: 1ee6 053c bdde b63d b0a2 663c 3edd 55bd
00000320: 49ee 17bd edd0 16bd 3db9 a0bd ccf3 0ebd
00000330: b1e2 1d3d 432a 28bd 71c1 103d 868b 2bbc
00000340: 45c1 a43c 8e9b a53b 6479 db3a 7510 6dbc
00000350: 8edd 44bd 7d68 6abc 4f18 6abd b9db 0c3d
00000360: 2702 2b3c 725c 10bd e3f2 4e3d 6b46 e3bc
00000370: d316 83bd ef9e 5abd 68a5 4a3d b7de 923b
00000380: 66bf 883d 0e6a db3c 5292 d8bc e29b adbb
00000390: fc14 9cbd d212 3c3d 5c34 4a3d 1904 b5bb
000003a0: 77a9 bbbd 510b a1bd 23fc 89bd e3b5 683c
000003b0: 7d9c 983a f17b 40bb f18c 8bbd 22d5 d1bb
000003c0: 9ee7 9dbd f984 33bd 862e 773c 4af5 2a3d
000003d0: cd3b 41bc 5d78 62bd 7eb1 da3d 43ef 5c3d
000003e0: 9485 c43c d126 383c 1c80 2a3d d4db da3d
000003f0: ecaf c5bb 95eb 24bd 3db7 e13c e541 903c
0.08104681 0.013992748 0.011099727 0.061205 -0.0243064 0.022211635 0.021878533 0.023453979
-0.0021351548 -0.015164751 0.09215691 0.05238271 0.028167766 0.031214273 0.0034967947 0.093437366
0.098643 0.027097857 0.08579578 -0.029053206 0.056915592 0.07040065 0.05172087 0.04058445
0.059369292 0.07513847 0.05670168 0.038398992 -0.054248907 0.050942518 0.08012544 -0.001681901
-0.010724708 0.030197749 0.11348379 0.025849774 -0.018568464 -0.01182151 0.028021542 0.007617076
-0.06157722 0.06561965 -0.0031897263 0.09019746 0.08102451 -0.07066303 -0.04758645 -0.115823075
-0.032001447 -0.10116269 -0.105246246 -0.03004005 -0.07338889 -0.086838245 -0.107416056 -0.12009099
-0.12626585 -0.08358257 -0.051577803 -0.12610301 -0.036509268 -0.0019350252 -0.049352825 -0.05738898
0.05952539 -0.03359258 -0.036104187 -0.029231682 0.007753002 -0.074367955 0.023867691 -0.046452675
-0.04185204 -0.086918205 -0.11476735 -0.063452 -0.04264065 -0.08673266 -0.06880591 -0.06626398
-0.120716594 0.091175444 0.058272284 -0.022021161 -0.005556398 0.01432339 0.016796863 0.08316002
-0.014617861 -0.014422486 0.017789086 -0.0031102046 0.012158684 -0.04977169 -0.022076234 -0.03778637
0.046322275 0.042468924 0.0034201804 -0.08606056 -0.034482647 -0.008291395 -0.0059845736 -0.0832635
0.03922881 0.026468635 -0.023666395 -0.033531815 -0.092106976 -0.026085863 0.056736186 -0.07293025
0.016417164 -0.008544153 -0.051121302 -0.03151006 0.00056830695 0.009314537 0.024447668 0.009569885
-0.079749726 -0.018125597 -0.022045907 -0.012017202 0.03500329 -0.03959244 -0.066154405 0.007283934
-0.039350018 0.047908746 0.0011021104 0.08917756 0.04844505 0.09672007 0.026371138 -0.015513348
-0.07373425 0.021756591 0.029128432 -0.032280587 -0.0059761056 0.0054218904 0.057793044 0.060075562
-0.0067039705 0.017958336 0.05407952 -0.035453554 0.0769746 0.089984395 0.13051803 0.1282785
0.10594572 0.0112856375 0.059713922 0.01455321 -0.023299871 0.06259455 -0.022780363 -0.028407937
-0.021859203 0.022014854 0.027211392 0.05675464 0.05435615 -0.06378647 -0.018459545 0.048326027
0.015522135 0.088947326 0.12211512 -0.018161396 -0.05144927 -0.07007955 -0.04551159 0.012102938
0.012828074 -0.04952068 0.031193124 -0.055128694 0.030772815 -0.020326123 -0.038713172 -0.047629897
-0.0453019 0.073821366 0.037790835 0.0966328 0.079691276 0.03153587 -0.013474634 -0.12628676
-0.033452593 -0.09170493 0.022844153 0.11242437 0.00817254 0.08929203 0.014076874 -0.052212946
-0.03709248 -0.03682034 -0.078478314 -0.03490047 0.038546268 -0.04105593 0.03534073 -0.010470277
0.02011169 0.005053944 0.0016744551 -0.014469256 -0.048062854 -0.0143071385 -0.05715209 0.03438923
0.010437525 -0.035244413 0.050524604 -0.027743539 -0.06400838 -0.053374227 0.04947415 0.004482116
0.06677131 0.02678397 -0.026436958 -0.0052981237 -0.0762119 0.045916386 0.04936634 -0.00552417
-0.09163182 -0.078634866 -0.067375444 0.014203521 0.0011643317 -0.002937075 -0.06813992 -0.0064035812
-0.07710193 -0.043827984 0.015086776 0.041737832 -0.011794043 -0.05529057 0.10678385 0.053939115
0.023989476 0.011239723 0.04162608 0.1068646 -0.0060329344 -0.04026373 0.027553195 0.017609546

pre_layer.6.bias f4 [64]
00000000: 6355 b73d 0847 8d3d c313 d93d 6699 653d
00000010: 49d5 463d 9966 9f3d 342d d03d c2b7 343c
00000020: 6548 073e 80e6 1b3d 5e69 003e 4e85 4b3d
00000030: 0ff4 b23d 3e10 a93d a0d4 993d 3cbc fd3d
00000040: 3c78 663d dfe9 ab3d 187e 133d ffba e83c
00000050: 0653 883d 9b90 f63c 0720 6e3d 57a1 b63d
00000060: c3b6 353d 8dcf 7f3d b640 983d 9482 973d
00000070: 0934 793d 8a2f 8c3d db62 9d3d e1f9 623d
00000080: 3af4 dd3d 1b7f ad3a ac99 bc3d 44e0 a43d
00000090: 3f6d 833d d31f ec3d 5243 d13d 5cfe a33d
000000a0: 1050 103d c12a d43d bf15 823d eda7 af3d
000000b0: 21e8 af3d d88d 373d e335 5f3d 39d6 543d
000000c0: 363d 5f3d 4985 a33d a040 123d ccfd 9f3d
000000d0: f79f 103d bbb8 483c 7400 073d bf9b 943d
000000e0: 524e c43d 03a6 a73d 6e74 9b3d 1a39 8b3d
000000f0: 261b df3d 8902 b53d 4906 8d3d 8ad7 9d3d
0.08951833 0.06898314 0.105994724 0.056054495 0.04854325 0.07783241 0.10164872 0.011030139
0.1321121 0.03806162 0.12540194 0.049687676 0.08737957 0.08255051 0.07511258 0.123894185
0.05626701 0.08394217 0.036008924 0.02840948 0.066564605 0.03009825 0.058136012 0.08917492
0.04436375 0.062453795 0.07434218 0.07397953 0.06084064 0.06845005 0.07684871 0.055414084
0.10837598 0.0013236733 0.09208998 0.08050588 0.064173214 0.115295075 0.102179185 0.080074996
0.035232604 0.10359717 0.06351804 0.08576951 0.08589197 0.044813007 0.05449475 0.05196211
0.054501735 0.079844065 0.035706162 0.0781208 0.035308804 0.012251074 0.032959417 0.07256269
0.09585251 0.08185961 0.075905666 0.06798001 0.1089385 0.08838374 0.068859644 0.077071264

pre_layer.9.weight f4 [128, 64, 2, 2]
00000000: 280f 14bd 7291 053d c7b4 a93d 0e4e f4bc
00000010: efb8 25bc 25b2 103c 0d7e 5f3d 00e9 7dbd
00000020: 3dea 9fbd ea05 553d 555c a0bd f1f8 0ebe
00000030: 88df ad3c 4b5e 50bd 17b9 a1bd 56f4 333d
00000040: 3e73 6bbd af00 3cbd 7be4 503d 66bb 9dbd
00000050: 7669 b63c 2756 283c c3e0 21bb 0ba7 973d
00000060: 5a49 d83c 53ac 56bd 80c4 3fbb 9f38 2abd
00000070: 5a30 903d 379e dbbd 511f 31bd 1367 b4bd
00000080: e193 f03c 726f dc3c f5e4 4fbd 2412 ca3b
00000090: 95a4 cc3d 2131 903b cf60 03bd b5e0 ec3d
000000a0: ac65 edbc 0a47 a2bd 5029 083d 049c 32bc
000000b0: f716 6dbd 1bbf f0ba 9eb1 a9bc f1eb 563d
000000c0: 6a0a 73bc 4b58 a43d 56eb 763d 7e22 793d
000000d0: 153d 303d f667 ec3c e9e9 b73a 51fe 6a3d
000000e0: 652b b4bd b40a b03d ac86 9e3c a0ca d9bc
000000f0: 7aa6 f9bd d7ca 80bc 5de2 12bc 5cd4 603c
00000100: 4036 df3d 0954 603d c8e9 65bc 5f32 203c
00000110: 9824 94bc 910c 463c 80dd aebc 00ea d8bc
00000120: bced 1cbd 5880 493c 1b7d 873d f409 00bd
00000130: 5ef6 a13c 87cd cfbb cdfe 0fbc 1faa ecbb
00000140: 9a9d 10bc a23e 0c3e 7059 823d 122e 903d
00000150: 77a6 873c 916b e7bc b56c 6ebc 3f6d 70bd
00000160: e312 8abd f5b8 aa3d 39df 27bd 750d 65bd
00000170: d440 123d 26c4 85ba faae a0bd 5c57 983d
00000180: 8b4f bbbd 7958 6abd 8278 19bc 1aa2 23bd
00000190: a44c c2bd 9b3f 163d b504 c2bd 8d44 bdbd
000001a0: 68b2 a4bd c6ba 65bd 5034 203d 25a8 833d
000001b0: a893 f5bb 15d0 833d 0c29 4abc 4212 cebb
000001c0: 95ab 6e3d 9ba4 03b8 f3a3 98bc f32b 953d
000001d0: d0a2 1f3d 9342 1f3d 2ca9 833c 1451 9e3d
000001e0: 951c 94bd d74e 32ba 4b81 dabb 60b9 723d
000001f0: 2df3 213d e184 e7bc 4ed7 1b3d d86e 0dbd
00000200: 5ad9 b3bc 98d8 843d b558 793c 4a7b cb3c
00000210: 6fa3 6ebd 7e02 9dbd 7c10 c8bd e56a 5b3b
00000220: bbd1 21bd 7851 573d baea cf3d acf6 e1bb
00000230: bc94 dfbd cfe0 603d d814 183d f455 39bc
00000240: 6397 a43d 5929 7b3d a1b8 7a3b 37f4 993d
00000250: dbe3 9a3d 21d8 c1bd 8e97 6d3c 8957 a0bd
00000260: 75fc 663c 8a3a 113d a886 fb3c 2028 eebd
00000270: 5ec3 f8bd 4dd7 86bc 2ef3 09be 7a60 9ebd
00000280: c726 73bd 807d 9a3d fe4e 86bb ba1f 5dbb
00000290: b777 4dbc 900d 0ebb 4253 57bd 1427 f2bd
000002a0: 477f 023d 1250 86bd 8199 263d 99e4 6b3d
000002b0: 284d cabd 594a a3bd f7f5 23bd 328c 07bd
000002c0: 85ee 0c3d cb17 aebd c6f7 c9bd 1b9f 6d3d
000002d0: dca9 63bd 6f3d 703d 52c3 95bd e7a0 98bd
000002e0: 568b 8fbc 3feb abbd 8211 573b 2ab7 283d
000002f0: a0a8 033d b18d b13b 8a08 50bd 44a0 71bc
00000300: 53c5 013d 4809 083e e076 5ebc b675 3fbd
00000310: 439e 09be 5b81 b6bc fc6e 1c3b 741d 293c
00000320: 11bb d7bb 401a 193d 2447 ccbd c576 923d
00000330: b6f6 1cbd 2975 93bd 29c4 d6bd b2be f03c
00000340: 142a bb3d 38e8 ac3c 38ca b93d 6e22 bb3a
00000350: db0f eebd 9a24 d03c 3023 afbc 3217 c4bb
00000360: 2274 f9bc 733a a8bd dd4b 233d 1cd1 01bd
00000370: e38c 283d b5f0 05bc 4dd0 883b 8bdd 713b
00000380: a289 6bbd 682a 54bd c47d d4bc 0594 0ebd
00000390: 51c8 1abc c140 523c 2fef 803c 8450 023c
000003a0: 50df c63c 3de1 673d 342c ce3d b082 d33c
000003b0: d506 153c 54a0 38bd dc7d 6dbc 1d21 cabc
000003c0: 9f11 dc3b d5b2 40bd 770d eb3c 51e7 413d
000003d0: 2101 c5bc 9160 723d cc13 90bc a36d 9f3c
000003e0: 210d 87bd e3c4 233b cf74 50bd 07ce 253d
000003f0: e9d6 233d 5164 52bc c23b bc3b 9377 e83c
-0.036147267 0.03260941 0.08286434 -0.029822376 -0.010114892 0.0088315355 0.05456357 -0.061989784
-0.07808349 0.052007593 -0.07830111 -0.13962151 0.021224752 -0.050871175 -0.07896631 0.04393419
-0.05748295 -0.04589909 0.050999146 -0.07701759 0.022267085 0.010274447 -0.0024700619 0.07404908
0.026402164 -0.052410435 -0.002926141 -0.041557904 0.07040472 -0.107235365 -0.043242756 -0.08808722
0.02936739 0.02690861 -0.05075546 0.0061667133 0.09992329 0.004400388 -0.032074746 0.11566297
-0.028979145 -0.07923706 0.033242524 -0.010901455 -0.05788323 -0.0018367501 -0.020714577 0.052471105
-0.014834026 0.08024653 0.060283028 0.06082391 0.043027002 0.028858166 0.0014031503 0.05737144
-0.08797339 0.085957915 0.019351326 -0.026585877 -0.12189956 -0.015721722 -0.008965102 0.013722505
0.10899019 0.054767642 -0.014032789 0.009777634 -0.018083856 0.012087957 -0.021345854 -0.026478767
-0.03831266 0.012298666 0.06615659 -0.031259492 0.019770797 -0.0063416394 -0.008788777 -0.0072224285
-0.008826638 0.13695768 0.06364715 0.07040037 0.016558869 -0.028249534 -0.014552285 -0.058697935
-0.067418836 0.08336059 -0.040984366 -0.055921037 0.035706356 -0.0010205552 -0.07845874 0.074385375
-0.09146031 -0.05721328 -0.00936711 -0.039949514 -0.09487274 0.036681753 -0.09473554 -0.09241591
-0.08041841 -0.056086324 0.03911239 0.064285554 -0.0074944086 0.06436173 -0.012338888 -0.0062887976
0.058269102 -3.1386135e-05 -0.018632865 0.07283773 0.03897363 0.03888185 0.016071878 0.07730308
-0.07232014 -0.0006801909 -0.006668245 0.05925882 0.03953855 -0.028261604 0.038047127 -0.034529537
-0.021954227 0.064866245 0.015218903 0.024839062 -0.05826133 -0.07666491 -0.09768769 0.0033480462
-0.039506655 0.05256793 0.101521924 -0.0068958607 -0.10917041 0.054901894 0.037129253 -0.011311997
0.08036687 0.06131873 0.003825702 0.075172834 0.07562991 -0.094650514 0.0145014655 -0.07829196
0.014098276 0.035456218 0.030703858 -0.11628747 -0.12146638 -0.016460085 -0.13471672 -0.07733245
-0.059363153 0.075434685 -0.004098772 -0.0033740834 -0.012540749 -0.0021675564 -0.052569635 -0.1182386
0.031859662 -0.06558241 0.040673736 0.057591055 -0.09877998 -0.07973165 -0.040029492 -0.033092685
0.034407157 -0.08500632 -0.09861712 0.058013063 -0.055581912 0.058652338 -0.07312645 -0.07452565
-0.017522495 -0.08394479 0.0032816832 0.041190304 0.032143235 0.0054185023 -0.050789393 -0.014747683
0.031682324 0.1328479 -0.013578147 -0.046743117 -0.13439278 -0.022278478 0.0023869863 0.010321964
-0.0065835794 0.03737855 -0.099745065 0.0715156 -0.03832122 -0.07200081 -0.10486633 0.029387806
0.09138885 0.021106824 0.09071773 0.0014277229 -0.11624118 0.025408078 -0.021379083 -0.0059842104
-0.030450884 -0.08214273 0.03986727 -0.031693563 0.041149985 -0.008175065 0.004175222 0.0036905732
-0.057504304 -0.051798254 -0.025938876 -0.03480913 -0.009447173 0.012832821 0.015739052 0.007953767
0.024276406 0.05661129 0.10067025 0.025819153 0.009095867 -0.045074776 -0.014495339 -0.024673993
0.006715968 -0.047045548 0.028692944 0.04733974 -0.02404839 0.059174124 -0.017587565 0.019461459
-0.06594301 0.002498918 -0.050892647 0.040479686 0.039999876 -0.0128413 0.0057444284 0.02837733

pre_layer.9.bias f4 [128]
00000000: 7b76 653d af3c 673d 5ae6 a83d f93c 9c3d
00000010: 53fc 1a3d d8f8 ba3d 7b76 603c 794f c73d
00000020: c209 953d 9e2c 923d 5780 543d c851 383d
00000030: 74d8 243d b647 743d a564 783d 36ee a63d
00000040: 47b6 023e f835 993d 4d18 403d efdf 923d
00000050: 9c56 5a3d d6b2 b13d 61e4 583d a302 1e3d
00000060: f3d2 843d e3a4 803d ef4c 803d 0d32 bc3d
00000070: b83d b13d 8725 2c3d 2473 733d e5da 9c3d
00000080: da1b 673d 69c9 a73c 24a5 ae3d 5353 753d
00000090: 81a8 cd3d a51e 653d 35fa cb3d fc50 b83d
000000a0: 7c37 d43d a475 263d dfa4 813d a8ac 653d
000000b0: 6d8c 743d 73c2 713d f186 b93d b4ce 993d
000000c0: c560 943d acb2 533d 2ec5 633d 8ad7 b43c
000000d0: f8a1 8f3d 6ff0 313d 3176 9c3d ffda c23c
000000e0: 6b90 a83d 7a13 b23d 079f 353d 5bb3 8a3d
000000f0: a5ea 733d ffda 9a3d cc3d cf3d 8689 ac3d
00000100: a6de 9a3d d82f d13d bcce 693d 13f6 bd3c
00000110: 8043 3c3d a7c8 ba3d 7962 613d a68c 0f3d
00000120: a9ed 893d b643 933d d3ff 1c3d 52d5 973d
00000130: 2e2a de3c dec8 8a3d bf4b aa3d 6ab7 703d
00000140: 12f8 b43d f464 a93d 4e54 e53d a542 3d3d
00000150: 0385 8b3d 2be1 783d 058b 9e3d 2f07 ae3d
00000160: c4cd 9e3d ef44 663d d3f6 8c3d 4d8d a03d
00000170: be60 cd3d e8f6 943d a8f4 763d 3d4a d03d
00000180: 309c d73d 9abe 573d d8e4 9c3d 3db3 d73d
00000190: 742e 493d a6ea b73d 1bfa a43d 126f 533d
000001a0: 28d0 9b3d 8917 8f3d db6a bb3d ccb4 fd3c
000001b0: 6fa7 593d f0db 6b3d 5526 cf3d ce2e b03d
000001c0: 7afe 813d e2a4 b63c b562 af3d f116 633d
000001d0: 1551 7e3d 0b58 963d 6203 8c3d 8135 433d
000001e0: 3cfe 513d 3dd0 b93c a426 d63b 3ea5 8c3d
000001f0: fdcd 903d 0ad1 943d 5f8b 893d 742f 973d
0.056021195 0.056454357 0.08247061 0.07628817 0.03783829 0.091294944 0.013700123 0.09731955
0.07277252 0.07137416 0.051880207 0.044999868 0.04024549 0.0596387 0.060642857 0.08150904
0.12764846 0.07480997 0.046898175 0.07171618 0.053305253 0.086766884 0.052952174 0.038576733
0.06485548 0.0628145 0.06264674 0.09189234 0.0865435 0.042027976 0.05943598 0.07658938
0.056423046 0.020481782 0.08527592 0.059893917 0.10041905 0.055937428 0.099598326 0.089998215
0.10362145 0.040639535 0.06330275 0.05607286 0.059704233 0.05902333 0.09058941 0.075101286
0.0724502 0.051684067 0.055607967 0.022075433 0.07013315 0.043442186 0.07639731 0.023786066
0.082306705 0.08695121 0.044341113 0.067724906 0.059549946 0.075613014 0.10119209 0.08424668
0.07561998 0.102142036 0.057081923 0.023188626 0.04596281 0.09120303 0.05502555 0.035046242
0.06734783 0.07190649 0.03832991 0.074137345 0.027119722 0.067765936 0.08315229 0.058768667
0.08836378 0.082712084 0.111977205 0.046206135 0.06812479 0.060761612 0.077413596 0.08497464
0.077540904 0.056218084 0.068830155 0.07839451 0.10028218 0.07273656 0.060291916 0.1017041
0.10527837 0.052672006 0.07660836 0.10532234 0.049116567 0.089803025 0.08055516 0.051619597
0.07608062 0.06986911 0.091512404 0.03097 0.053138193 0.057582796 0.10114733 0.08602677
0.06347366 0.02229542 0.08563749 0.0554418 0.062089045 0.073410116 0.06836583 0.047658447
0.051267847 0.022682304 0.006535368 0.06867455 0.07070539 0.072664335 0.06716036 0.07382098

conv5.weight f4 [256, 512]
00000000: a09b 23bd 0e90 973b 0981 f0bb 03ac 843d
00000010: f147 673c 8c0a c2bd bf3d 4e3d e370 94bd
00000020: 97e7 eabc 1226 e6bd 9d8a 43bd c488 2e3d
00000030: a3df 893d 31ae 883d eca6 a7bd c390 f0bb
00000040: 1099 b1bd 57d8 e43c 72b4 0cbd e873 4f3d
00000050: bcc4 c73d f1cb acbd 0281 a0bd 470f 12bd
00000060: 8b27 023e 5f30 a13c 5ef3 cf3d 8f81 66bd
00000070: 6376 cebd a05b cfbc 4e07 94bd 0451 37bc
00000080: bf5b 393d 867b d1bc 52c8 d4bd 9e7c 00bd
00000090: 5cbc 973c 349e d83c 8f3f 7c3d 2283 8d3d
000000a0: b6ad 133d d528 873d 8661 423d b833 363d
000000b0: f8e1 023d ec87 2fbd fd56 cd3c 6fc5 f6bc
000000c0: cf70 813c 02ce c9ba 1372 7a3d 359d d4bd
000000d0: 8bd2 68bd 5624 9d38 3f3b 74bd 9e29 003c
000000e0: 007e 033d e246 a2bc 3ee3 1a3d 37d0 44bd
000000f0: 8aff dd3a a08a fcbc 1023 49bd cb83 83bd
00000100: a37a 85bd 6aaa b0bd c888 73bc 0937 8c3d
00000110: 35d4 ad3d 998e b13c 06ec 833d 072b 253d
00000120: 4180 323d 3385 84bd 2818 99bd 927f c83c
00000130: e341 c43d 2a13 8b3d 75c1 0bbc 7d90 f3bc
00000140: f428 103c 70ac 223d b89e aa3c d0a4 7abd
00000150: 838c 473a f8c9 f33c bc56 c3bc 7305 20bc
00000160: 0f6b b63a 2137 9c3d defa 0abd d1ae a33d
00000170: 81e6 3dbd 3bf1 b2bc cd0e af3d 6319 80bb
00000180: 02b5 813c e1b6 d03d c362 a73d 5fe7 263d
00000190: eccf 123c 8bdb f9bb 6b43 0dbd ca34 3d3d
000001a0: e852 9e3d 38b0 3e3c 0bb4 3abd 1401 773c
000001b0: e438 223d ce9b e73c 5a85 84bd 58e6 c53c
000001c0: b0df b53c 7984 46bb 5625 9bbd 554b 733d
000001d0: aa97 d63d 2dc5 5f3b bed4 cb3d f0d3 343d
000001e0: 0f27 e23d a537 78bb 8b75 a43d c3e6 df3b
000001f0: b03c a0bd d770 b1bc 8700 283d 0b0a 6c3d
00000200: 3113 2f3c 3096 5ebd 89ac a23d 406e f33c
00000210: cf91 983d f9b6 013c 937c da3d d432 b23d
00000220: 11ea 33bd 1e2a b3bb bac7 51bd 4651 073d
00000230: 38d5 43bd 82ad 2a3c d059 b8bd 53b4 4bbd
00000240: db10 10bc 5628 603d 6da5 90bd 3999 c13d
00000250: c66b 11bc 8b0b 163d 1438 59bc 5e57 2c3d
00000260: bdca d23b b515 bfbd a9de 15bd 3294 9b3d
00000270: 3287 f5bc 7fe1 4d3d 363e 36bd 2002 cc3c
00000280: 9d17 83bd 0cae 1d3d c1c7 cabd cfca a4bd
00000290: 988c 373c c2bb c13d b9b5 cd3c bc7b 6fbc
000002a0: 91a6 9ebd c51b aabb 4721 d5bd 527d 9b3d
000002b0: 3b50 9f3a cc4f c33d 2a73 643d 526c d63d
000002c0: f481 b2bd 30f8 30bd 8468 353d 9957 5b3d
000002d0: 35ac 9f3c c5a7 573c 046b 643d dcf9 11bd
000002e0: 790f b13c 5309 4c3d 8fed 91bc fbdb 85bd
000002f0: af1c cabd e1db c7bd a369 693c 9bc3 113c
00000300: 9534 3abd a0f6 8e3d 8a34 3dbd 0237 19bd
00000310: 6c2b dfbb b405 e4bc 58ab 5339 217a 173d
00000320: eed3 923c 5f52 7a3d 6ecb 57bc fe85 c23d
00000330: d41a bc3d a339 17bd d553 f1bc ba1b 363d
00000340: 7f9b 54bd 1145 313d 7779 43bd 1585 adbd
00000350: 66bd c43c fb0f 813d 12c6 dc3d 04d0 303d
00000360: d386 713d 8e3d 94bd 5d06 81bd e50c d8bd
00000370: 9c17 bf3d f27d 06bd 284b 3b3d 6ad5 153a
00000380: d164 683c 360a 143d 267f f2bc a8e6 1cbd
00000390: f0c4 8bbd d840 32bc e33c 793d ed40 8abc
000003a0: d3eb 9c3d fc37 5dbd 70f5 39bd 8259 4ebd
000003b0: bfa5 c33d 7d2a ad3c 0e6d 93bd 6263 9abd
000003c0: 4ab8 7ebb 1220 4d3b 5e2d b4bd 3c24 ee3c
000003d0: 3b05 9d3d 3568 9cbd e06e 663d 16a4 3a3d
000003e0: e81a a9bd 300e 95bd 6c10 f2bb 805a bebd
000003f0: 7809 8c3d d666 1ebd 0c2d 65bd cf30 6dbd
-0.039943337 0.004625327 -0.007339601 0.06478121 0.014116273 -0.09474668 0.050351854 -0.07248094
-0.028674884 -0.1123773 -0.047739614 0.0426109 0.067321084 0.066738494 -0.08186135 -0.0073414757
-0.086717725 0.02793519 -0.034351774 0.050647646 0.09754321 -0.08437336 -0.07837106 -0.0356591
0.12710397 0.019676385 0.101538405 -0.0562759 -0.10081174 -0.025312245 -0.07227956 -0.011188749
0.04525351 -0.025571596 -0.103897706 -0.031368844 0.018522434 0.026442625 0.06158405 0.06909777
0.036054336 0.06599585 0.047456287 0.044482917 0.03195378 -0.042854235 0.025065893 -0.03012344
0.015800862 -0.0015396478 0.061143946 -0.10381547 -0.056841414 7.4931115e-05 -0.059626814 0.007822422
0.032102585 -0.01980919 0.03781437 -0.04805013 0.0016937118 -0.03082782 -0.049105704 -0.06421622
-0.06517532 -0.08626254 -0.014864154 0.068464346 0.08487741 0.021674441 0.06441502 0.040324237
0.043579344 -0.06470718 -0.074753106 0.024474893 0.095828794 0.06790765 -0.0085300105 -0.029731983
0.0087988265 0.03971523 0.020827636 -0.061192334 0.00076121854 0.029759392 -0.02384507 -0.009766924
0.0013917404 0.076277025 -0.03393065 0.07992328 -0.046362404 -0.021843543 0.08547745 -0.0039092763
0.015833382 0.101911314 0.08173134 0.040747996 0.008960705 -0.0076250485 -0.034488123 0.04619292
0.07730657 0.0116386935 -0.04558186 0.015075941 0.039605036 0.028272536 -0.06470747 0.024157688
0.02220139 -0.0030291362 -0.07575481 0.059398014 0.104781464 0.0034144626 0.09952687 0.04414743
0.11042606 -0.0037874964 0.08030232 0.006832929 -0.07824075 -0.021660252 0.041016128 0.057626765
0.010685728 -0.05434245 0.07943065 0.029715657 0.07449686 0.007917159 0.10668292 0.08701101
-0.043924395 -0.0054676672 -0.051215865 0.033036493 -0.047810763 0.010417344 -0.090015054 -0.049732517
-0.008793081 0.054725967 -0.070628025 0.09453053 -0.008875793 0.036632102 -0.013257999 0.042075507
0.0064328597 -0.09330312 -0.0365893 0.075966254 -0.029971693 0.050263878 -0.044492923 0.024903357
-0.06400988 0.038496062 -0.09901381 -0.08046495 0.011202954 0.0945964 0.025111066 -0.014616903
-0.07746614 -0.0051912987 -0.10406738 0.07592262 0.0012154648 0.095367044 0.05577389 0.10469879
-0.08716193 -0.04320544 0.044289127 0.053550337 0.019491294 0.013162558 0.05576612 -0.035638675
0.021613823 0.04981358 -0.017813472 -0.065360986 -0.09868752 -0.097587354 0.014246377 0.008896734
-0.045460302 0.06980634 -0.046192683 -0.037405975 -0.006810596 -0.02783475 0.00020186359 0.036981706
0.017923322 0.06111371 -0.01317106 0.09498213 0.091848046 -0.0369202 -0.02945892 0.044460036
-0.051906105 0.043278757 -0.04772326 -0.08472649 0.024016093 0.06301876 0.107799664 0.04316713
0.05896647 -0.07238303 -0.06300042 -0.105493344 0.09330675 -0.032834955 0.04572597 0.00057157
0.014184193 0.03614255 -0.029601645 -0.03830591 -0.06824672 -0.010879718 0.06084908 -0.016876662
0.076621674 -0.05400847 -0.045400083 -0.05037833 0.09553098 0.021138424 -0.07198535 -0.07538487
-0.003886717 0.0031299633 -0.087977156 0.029070012 0.07667013 -0.076370634 0.056258082 0.04556664
-0.08257085 -0.07278097 -0.0073872115 -0.09294605 0.068377435 -0.03867229 -0.055951163 -0.057907876

conv5.bias f4 [256]
00000000: 95b6 0c3d b47d c43d e713 5b3d 2db8 263d
00000010: 984a 2e3d 34bb 7d3d 4835 df3d 4d1f 363d
00000020: 7caa 903d 9da6 7b3d d2c1 1e3d f462 7f3d
00000030: 9323 2c3d f01f 863d e910 b33d 286d bc3c
00000040: 8932 b43c 276e 0a3e f8c2 893c b1c3 2a3d
00000050: bd31 e73d 9c1f f73d 6d03 b23d f913 b93d
00000060: d24e 093e d9bd 043e 3ec6 0c3e e2c8 373d
00000070: c599 7a3b a696 c63d a63d f13d 0c24 e43d
00000080: 265d e63c 09cb 9d3d c30e 8d3b 07fb 9a3d
00000090: 749b 983d 8662 e43c 0cba c73c 2059 673d
000000a0: 62ca f63d c080 543d 8f81 283d 5f9a 163e
000000b0: 5db9 173d 5145 443d 4ac2 353d 58c2 c03d
000000c0: 6298 9e3d ca01 223e fcbd 053e 7ff9 1e3d
000000d0: 84d0 153e 94c5 843c 0e21 8a3d 42ae 173d
000000e0: f5bd e13d 9454 293e b3c6 b93c 45df 103e
000000f0: beb3 b23d 77c4 263c 9132 dd3d 0e04 083e
00000100: 802f 9a3c a8d4 013e 2c4a c83d 9a29 603d
00000110: df67 b33d 3aa9 c33d 516c 003e 0a88 d93d
00000120: fbb6 a03c c0ff 983d 60f1 d43d 9daa af3d
00000130: a23a c43c 8886 ce3d 1357 093e c015 943d
00000140: a0e2 c33d 7fb8 223e b693 a43d b7ec b1b9
00000150: 1d81 883d c431 ce3d 7dc5 7a3d dde4 3d3d
00000160: 1d80 0d3e 14c4 c23d 7eb2 0c3e 410d 003d
00000170: 72dd c83d 1f4c fa3d 4687 5a3d 6b62 0d3d
00000180: 58db d13c b3ce 2a3d cfd2 fc3c 80b4 fb3d
00000190: d992 d53b 89c5 8a3c f601 303d 128a a43d
000001a0: 4ab2 783d 1b83 053e 68dc 973d 4aa9 863d
000001b0: a0c8 fd3c b57c e63d 15de dc3d e0fb 263d
000001c0: 45c7 ba3d 3a47 ce3d 1e35 853d e1e2 e83c
000001d0: 5e4a 8c3d c234 4c3d 7936 1e3d 8623 253d
000001e0: f4a2 373d 214f df3d 97fd ad3d 5ac7 5a3c
000001f0: b687 5d3d 1c15 a93d c3a6 273d 3271 dd3d
00000200: 42eb f23c 9b04 723d 3295 023e 6b1e 9b3d
00000210: 5525 943d 4320 f23d 5e71 193d eaf2 ae3c
00000220: 280e 593d 6490 1b3e 4ae8 d03d cd65 c63d
00000230: 1d54 3a3d 2336 ce3d 5008 923d d71c a33d
00000240: aef9 ee3d a292 cb3d dd34 833d 58b1 983d
00000250: c98d 003e 848a 933d 305a b43d 3e63 253d
00000260: 0d0d 173e 1c6f bb3d b3a9 df3d 6952 bd3d
00000270: 8e49 ea3c f117 df3c 4c69 e93d c13f 1b3e
00000280: 4c55 a73c fdfc c63c 8a5f fc3d fcfb 1e3d
00000290: bc65 793d f197 e43d 5467 8c3d 28c5 8e3d
000002a0: d2d4 d83c 6ab3 cb3d c91a 403d 794f f03c
000002b0: 89c9 d83d 323c b43d 803f 6abb 6983 053e
000002c0: 42be dd3c 8a1e 353d 9401 3a3d a9c6 083d
000002d0: bb86 df3c 398e 0d3e 69cc 993d f61a 973d
000002e0: 48a4 083d a280 9e3d 1889 6f3d 15f3 bb3d
000002f0: 26cf 1f3d 6546 c43c 7dd3 b33d ba31 ac3c
00000300: 4a99 143e 7e03 193d c9a5 323d b449 823c
00000310: e161 0f3e bef2 ef3d c27b b73d e2ae cb3d
00000320: b643 a63c f1c3 9e3d 4aa9 0f3e f0a5 923d
00000330: b57b 253d fdda 833d c67a e83c 2292 d43d
00000340: 996e e13d 5a76 db3d cdc6 fc3d d97e bb3d
00000350: 446d ed3d 1ddd b13d 107d dc3d 4289 873d
00000360: 89ef cd3d 8939 1c3e 50b2 aa3d 3e77 3b3d
00000370: 07cd ae3d a325 7c3d 5777 6b3d 282c fb3c
00000380: 03b8 323e b921 233e 7689 a83d 5081 7e3d
00000390: 336b 603d 544c 133e 4ea1 333d 8257 fa3d
000003a0: 2b3f ff3d 6a54 103e a410 733d 369e 1d3e
000003b0: 43e3 ec3d 7838 a13d ad97 f43d f71d 3d3d
000003c0: 061e 9e3c 36d0 903d 1773 003e a565 6f3d
000003d0: 7245 d53d a157 923d f410 3c3d 7774 863d
000003e0: 05c0 e23d 120e 903d 5e6c ea3d b0f9 e63c
000003f0: 2192 673d 7168 e33c 29f8 843d fd98 793d
0.03435381 0.095942885 0.053485777 0.040702987 0.042551607 0.06194611 0.108988345 0.044463445
0.07063767 0.06143819 0.03875906 0.06235023 0.042026114 0.0654906 0.0874346 0.023001269
0.021996753 0.13518582 0.016816601 0.041690532 0.11288784 0.12066576 0.0869206 0.090370126
0.13408974 0.12963046 0.13747498 0.04486931 0.0038238626 0.09696703 0.11779337 0.11139688
0.028120589 0.077047415 0.0043047382 0.07567411 0.07451525 0.02787901 0.024380706 0.05648148
0.1205032 0.051880598 0.04113918 0.14707325 0.03704201 0.047917668 0.04437474 0.09412068
0.077439085 0.15820995 0.13060755 0.038812157 0.14630324 0.016207494 0.06744586 0.03703142
0.110225596 0.1653617 0.022677755 0.1414767 0.08725689 0.010178677 0.108006604 0.13282797
0.018821478 0.12678778 0.09779772 0.054727174 0.08760046 0.09553762 0.1254132 0.106216505
0.019618502 0.074706554 0.10397601 0.08577464 0.02395374 0.100842535 0.13412122 0.07230711
0.0956471 0.15890692 0.08035986 -0.00033936437 0.066652514 0.10068086 0.061223496 0.04636084
0.13818403 0.09510055 0.13739964 0.03126264 0.09807862 0.1222155 0.053351663 0.034517687
0.025617287 0.04170103 0.03086224 0.12290287 0.0065177497 0.016939895 0.04297062 0.08034147
0.060716905 0.13038294 0.07415086 0.06575258 0.030979455 0.11254255 0.10784546 0.04076755
0.09120039 0.10072179 0.06504272 0.028428497 0.06850122 0.049855 0.038626168 0.04031708
0.04483314 0.109037645 0.08495634 0.013353193 0.054084502 0.082559794 0.04093052 0.10812606
0.029653195 0.059086423 0.12752226 0.07574161 0.07233683 0.1182256 0.03746163 0.021356065
0.052992016 0.151918 0.102005556 0.09687386 0.045490373 0.100689195 0.07130492 0.07964485
0.11668716 0.09940077 0.06406567 0.07455701 0.12554087 0.07204154 0.088062644 0.040377848
0.14751072 0.09152052 0.109210394 0.09244234 0.028599527 0.027233096 0.11397037 0.15161039
0.020426415 0.024290556 0.1232291 0.03881453 0.060888037 0.11161793 0.06855646 0.06971198
0.026468668 0.0994633 0.046900544 0.02933477 0.10585315 0.08800544 -0.0035743415 0.1303841
0.027068261 0.044218577 0.04541166 0.033392582 0.027285924 0.13823785 0.07509691 0.07378189
0.033359796 0.077393785 0.058480352 0.091772236 0.03901591 0.023959348 0.087805726 0.021019805
0.145116 0.037356846 0.043615136 0.015904285 0.14002182 0.11716221 0.08959152 0.099454656
0.020295959 0.077522166 0.14029422 0.07160556 0.04040118 0.06438253 0.028378855 0.10379435
0.11007423 0.10715933 0.12342606 0.09155054 0.115931064 0.08684752 0.10766041 0.06617977
0.10055453 0.15256323 0.08334792 0.045768015 0.085351996 0.06155933 0.05748686 0.030660704
0.17453007 0.15930833 0.082293436 0.06213504 0.054789733 0.14384586 0.043855004 0.12223722
0.1246322 0.14094701 0.05934204 0.15392384 0.11566784 0.07872099 0.11942992 0.046171155
0.019301426 0.07070963 0.12543903 0.058446545 0.10413636 0.0714562 0.045914605 0.06565183
0.11071781 0.07033934 0.11446451 0.028195232 0.056535844 0.027759762 0.06492645 0.060936917
