P03_FaceRecognition/FaceDetect_MTCNN/model_for_use/pnet_epoch_30.pt (torch_old, 30012 bytes, 11 tensors)

pre_layer.0.weight f4 [10, 3, 3, 3]
0	0x3d709551	0.05873615
1	0x3e977fc9	0.2958968
2	0x3cf07a73	0.029355263
3	0xbdd5bfd4	-0.10436979
4	0x3e82fdf7	0.25584385
5	0xbdb39004	-0.08767703
6	0x3ca29464	0.019846149
7	0x3d7e69ae	0.062112503
8	0xbe0ac469	-0.13551487
9	0xbdc45261	-0.09586025
10	0xbd0eaf6e	-0.03483527
11	0x3e4ef223	0.20209555
12	0x3e7a8394	0.24464256
13	0xbd5f6057	-0.054535236
14	0xbd5d3ff7	-0.05401608
15	0x3e9a57d3	0.3014513
16	0x3e5844b6	0.21119961
17	0x3e21cac9	0.15800013
18	0xbe16c98e	-0.14725325
19	0xbeae01c4	-0.33985722
20	0xbeb168e5	-0.3465034
21	0xbccea88c	-0.025226854
22	0xbe9cad38	-0.30600905
23	0xbd38c2f4	-0.045107797
24	0xbe563ed2	-0.20922402
25	0xbe04a313	-0.12952833
26	0x3df31e90	0.11871064
27	0xbe854398	-0.26028132
28	0xbeb4c63d	-0.35307494
29	0xbe444d7a	-0.1917018
30	0xbec61e74	-0.3869511
31	0xbe9eed77	-0.31040546
32	0xbe85efa4	-0.26159394
33	0xbdf0c156	-0.11755626
34	0xbe06a446	-0.13148603
35	0xbed18d44	-0.4092809
36	0xbe6cf4ba	-0.23140231
37	0x3db6ee0b	0.08932122
38	0x3e1c6e0d	0.15276356
39	0xbd3a26f6	-0.045447312
40	0x3d452241	0.04812837
41	0x3e139af1	0.14414574
42	0xbe25a700	-0.16176987
43	0xbe22e471	-0.15907456
44	0xbd550c84	-0.05201389
45	0xbdf75635	-0.120769896
46	0x3e33caf8	0.17557895
47	0xbc5c3a48	-0.01344163
48	0x3e6b1310	0.2295649
49	0x3dc7f7cc	0.097640604
50	0x3e1714e6	0.14754066
51	0x3e9ea969	0.30988625
52	0x3de07ea0	0.10961652
53	0xbc552d00	-0.013011217
54	0xbda96a47	-0.08272224
55	0xbcb0931b	-0.02155452
56	0xbd75d76f	-0.060019907
57	0xbced094e	-0.0289351
58	0xbd367f40	-0.04455495
59	0x3db3a9e1	0.08772636
60	0x3c9cf7fd	0.019161219
61	0xbe8bc29d	-0.27296916
62	0xbe2e3854	-0.17013675
63	0x3e395e1c	0.18102306
64	0x3ea9f540	0.33194923
65	0x3e2da0e7	0.1695591
66	0xbe8f3f62	-0.27978045
67	0xbe9420b6	-0.28931206
68	0xbe177a6a	-0.14792791
69	0x3d64aef9	0.05583093
70	0xbcef7561	-0.029230775
71	0xbc2425f2	-0.0100188125
72	0x3e54c996	0.20780024
73	0x3d407151	0.046983067
74	0x3e75acf6	0.2399176
75	0xbe472ea9	-0.19451393
76	0xbe516dc1	-0.20452024
77	0xbdedaa60	-0.11604762
78	0xbe297b36	-0.16550907
79	0x3c58f5b3	0.013242173
80	0x39f24c53	0.00046214703
81	0xbe431eff	-0.19054793
82	0x3e0dfc09	0.13865675
83	0x3e92e35a	0.2868908
84	0x3eb709cd	0.35749665
85	0x3dbddd90	0.09270775
86	0x3d006696	0.031347834
87	0x3d9121ac	0.070865005
88	0x3e10ec47	0.14152633
89	0xbc80e086	-0.015732061
90	0xbebc238b	-0.36745867
91	0xbeb79dcf	-0.35862586
92	0x3ea4c2fb	0.32180008
93	0xbe414f7a	-0.18877974
94	0xbdadbad9	-0.08482904
95	0xbeb32d76	-0.3499562
96	0xbe77d92b	-0.24203937
97	0xbbbf4ec1	-0.0058382456
98	0xbe8bf899	-0.27338102
99	0x3b1529bc	0.0022760471
100	0xbe39c124	-0.18140084
101	0x3e84ce06	0.25938433
102	0x3d86a49c	0.065743655
103	0x3df60b00	0.12013817
104	0xbde78f3a	-0.11306615
105	0xbd641188	-0.05568078
106	0x3e3a9772	0.18221834
107	0x3e1eb502	0.15498737
108	0xbefc33cb	-0.49258265
109	0x3e61bb38	0.22044075
110	0xbe755d3e	-0.2396135
111	0x3dcf5617	0.10123842
112	0x3e51c8e6	0.20486793
113	0xbdee882e	-0.11647068
114	0x3e54935d	0.2075934
115	0xbe1eeb71	-0.15519501
116	0xbe87f7ae	-0.26556152
117	0xbea5d431	-0.32388452
118	0x3da0a1bd	0.07843349
119	0xbe057d56	-0.13036093
120	0x3e826607	0.25468466
121	0x3d0474a3	0.032337796
122	0xbeb04d55	-0.34434
123	0xbd6eee76	-0.058332883
124	0xbdfd7d77	-0.12377446
125	0x3cd975f0	0.026545495
126	0x3d6ec641	0.05829454
127	0xbd175fb2	-0.036956497
128	0xbec1d4df	-0.3785772
129	0x3e6c2b63	0.23063426
130	0x3db27301	0.087133415
131	0xbe9253f4	-0.28579676
132	0x3e48c591	0.19606616
133	0x3e095912	0.13412884
134	0xbeb09647	-0.34489653
135	0xbde55a5a	-0.11198874
136	0xbdc88078	-0.097901285
137	0x3dc1c8a4	0.09462097
138	0xbd3f0fb3	-0.04664583
139	0xbe244ab0	-0.16044116
140	0x3de0cf35	0.109770216
141	0x3e04b9dd	0.12961526
142	0x3cc558d0	0.0240902
143	0x3ed5c013	0.41748103
144	0xbbb33951	-0.005469479
145	0x3de5af61	0.112150915
146	0xbdc8c075	-0.09802333
147	0xbeadab68	-0.33919835
148	0xbe644f12	-0.22295788
149	0x3ed77155	0.42078653
150	0xbe99ba35	-0.30024877
151	0xbe66b430	-0.22529674
152	0x3e5dd2b1	0.21662404
153	0xbeb504b8	-0.35355163
154	0xbe6081b8	-0.21924484
155	0x3dcf903f	0.10134935
156	0xbe784e0b	-0.24248521
157	0xbe5f35b6	-0.21797833
158	0x3ec50837	0.3848283
159	0xbe4c6485	-0.1996022
160	0xbdecaddf	-0.11556601
161	0x3dd0bd20	0.10192323
162	0xbe0b50fb	-0.1360511
163	0xbe984696	-0.29741353
164	0xbe7921f2	-0.24329355
165	0x3cc0afe7	0.023521377
166	0x3b1257e8	0.0022330228
167	0x3d7cc588	0.061711818
168	0x3e47d6ff	0.19515608
169	0x3e2696a0	0.16268396
170	0x3e92341b	0.28555378
171	0xbe0cc5bb	-0.13747303
172	0xbedd2ac9	-0.43196705
173	0xbed8766e	-0.42277855
174	0xbe3ce1ba	-0.18445483
175	0xbe8fc4f8	-0.28079963
176	0xbdedc1a5	-0.116092004
177	0x3d9ee515	0.07758538
178	0xbdf2f8d8	-0.118638694
179	0xbdabfa9c	-0.08397409
180	0x3d1fe84f	0.039039906
181	0x3e206540	0.15663624
182	0xbd45dbf9	-0.048305485
183	0x3e888d8b	0.2667049
184	0x3d8bed3d	0.06832359
185	0x3e595c24	0.21226555
186	0x3df4edfa	0.11959453
187	0x3e31e3f2	0.1737211
188	0x3e347965	0.17624433
189	0x3e8ce5d7	0.27519104
190	0xbe5dffa0	-0.21679544
191	0xbdaac699	-0.08338661
192	0x3e876da0	0.26450825
193	0x3bb9e977	0.005673583
194	0x3e36ff31	0.17870785
195	0x3ea3d968	0.32001805
196	0xbe04aeb3	-0.12957267
197	0x3dbe80d3	0.09301915
198	0x3aa1916f	0.0012326668
199	0x3e26008c	0.16211146
200	0xbc631e3c	-0.013862189
201	0x3dc3fe82	0.09570028
202	0xbe5d9aae	-0.21641037
203	0xbd232f85	-0.03984024
204	0x3e827e63	0.2548705
205	0xbe2e0f2b	-0.16997974
206	0xba02b806	-0.0004986528
207	0x3d81df87	0.063414626
208	0xbe06168c	-0.13094538
209	0xbe2fa0ea	-0.17151228
210	0xbe601a7f	-0.21885107
211	0xbe5c91aa	-0.21539941
212	0x3db5cef2	0.08877362
213	0x3cd6ec04	0.026235588
214	0x3d1e3e40	0.038633585
215	0xbe9d92a5	-0.30775943
216	0x3d8f6eab	0.0700353
217	0xbd4eed10	-0.05051905
218	0xbd8da302	-0.06915857
219	0xbe016a03	-0.12638097
220	0xbcb4140c	-0.021982215
221	0xbe792150	-0.24329114
222	0x3c457a47	0.012053079
223	0x3d96003f	0.07324266
224	0x3d2e52c0	0.042559385
225	0xbe8022ba	-0.25026494
226	0xbeae1f9c	-0.3400849
227	0xbe8a71c0	-0.2703991
228	0xbeb994a6	-0.36246222
229	0xbcb8f1d5	-0.022576252
230	0xbda995be	-0.08280514
231	0xbc467fa3	-0.012115392
232	0x3d839cb6	0.064263746
233	0xbd7eeda1	-0.06223834
234	0xbd0d1ccb	-0.034451287
235	0x3e2718eb	0.16318099
236	0x3e0aaa5f	0.13541554
237	0xbe3ad9a3	-0.18247084
238	0xbd81b565	-0.063334264
239	0xbb8554e7	-0.004068959
240	0xbe076ea7	-0.13225804
241	0x3e151a0a	0.14560714
242	0x3d8ac0c1	0.06775046
243	0xbe6603ac	-0.22462338
244	0xbe3d9f22	-0.18517736
245	0xbeb4074f	-0.35161826
246	0xbe8f349c	-0.27969825
247	0x3d7f734f	0.062365826
248	0xbe91a478	-0.28445792
249	0xbec078bd	-0.37592116
250	0xbeda17b3	-0.42596206
251	0xbef09a41	-0.46992686
252	0xbe7aeb2e	-0.24503776
253	0xbdfff0ad	-0.12497077
254	0xbd6bd494	-0.057575777
255	0x3e061073	0.13092212

pre_layer.0.bias f4 [10]
0	0x3e022d9d	0.12712713
1	0x3e6caf53	0.23113756
2	0x3dcd9c45	0.10039572
3	0xbd6c0a0c	-0.05762677
4	0x3e3b79e4	0.18308216
5	0x3d4a90f7	0.049454655
6	0x3c35df99	0.011100673
7	0x3c953e5f	0.018218217
8	0x3e290455	0.16505559
9	0x3d5924d6	0.053013645

pre_layer.3.weight f4 [16, 10, 3, 3]
0	0xbcaf09a9	-0.021366911
1	0xbdce1712	-0.10062994
2	0xbe2bb95a	-0.16769925
3	0x3aa975e3	0.001292881
4	0x3e265518	0.16243398
5	0x3d28152d	0.04103582
6	0x3d7643b7	0.06012317
7	0x3eee6177	0.46558735
8	0x3e6d669a	0.2318367
9	0x3d814818	0.06312579
10	0xbbaa26c5	-0.00519261
11	0xbd2f1435	-0.04274388
12	0x3e111c0b	0.14170854
13	0x3e190477	0.1494311
14	0xbd94016f	-0.07226836
15	0xbd060e7a	-0.03272865
16	0xbe3dc395	-0.1853164
17	0xbe363d1e	-0.17796752
18	0x3d8ca06a	0.06866534
19	0xbe8be95b	-0.27326474
20	0xbd6e1cdc	-0.05813299
21	0xbd98e3cd	-0.074653246
22	0x3dbe84bd	0.093026616
23	0xbd8725e1	-0.06599022
24	0x3da0ca7a	0.07851119
25	0x3d38aa63	0.04508437
26	0x3d67a311	0.056551997
27	0x3d163b00	0.03667736
28	0x3dc6a73c	0.09699866
29	0x3eccef37	0.40026256
30	0x3d8a2c97	0.06746786
31	0xbecaddb9	-0.39622286
32	0xbe87e5fe	-0.26542658
33	0x3e1072c9	0.14106287
34	0x3e7677f2	0.24069193
35	0x3e0a2b00	0.13492966
36	0x3e474f73	0.19463901
37	0xbdbb75d0	-0.0915333
38	0xbe3a5f3b	-0.1820039
39	0x3e185a5a	0.14878216
40	0xbd71e30e	-0.059054427
41	0xbe952611	-0.29130605
42	0x3e881d8d	0.26585045
43	0x3cb594fa	0.022165764
44	0x3d74ece1	0.059796218
45	0xbe3e22b3	-0.18567924
46	0xbdc83e25	-0.09777478
47	0xbda50d1d	-0.08059142
48	0xbcaf379f	-0.021388827
49	0xbdf02e0e	-0.11727534
50	0xbc42c896	-0.011888644
51	0x3e8dc933	0.27692565
52	0x3ec00cfb	0.37509903
53	0x3ce712b1	0.028207155
54	0xbe7fa6d0	-0.24965978
55	0xbd93c2db	-0.072149
56	0xbe9600bd	-0.29297438
57	0xbd4e0bff	-0.05030441
58	0xbe805e72	-0.25072056
59	0xbe11d965	-0.14243086
60	0xbe8082c3	-0.25099763
61	0xbe605a1b	-0.21909373
62	0x3e1333f1	0.14375283
63	0x3e148792	0.14504841
64	0xbd800462	-0.06250836
65	0xbe599a87	-0.21250354
66	0x3e20929f	0.15680932
67	0x3cd501e2	0.026001874
68	0x3ecf4b5d	0.40487185
69	0xbe8e951e	-0.27848142
70	0x3e02bbc7	0.12766944
71	0x3f07d96e	0.53066146
72	0x3bc09dca	0.005878185
73	0x3e25a691	0.16176821
74	0xbdd291cf	-0.10281717
75	0xbd5ee205	-0.054414768
76	0x3d0fbba0	0.035091043
77	0x3d48f2cd	0.049059678
78	0xbe039399	-0.12849273
79	0xbd7bb1a7	-0.06144872
80	0xbe378a9b	-0.17923968
81	0x3c3eb149	0.011638948
82	0x3cd96c1d	0.02654081
83	0xbd497d12	-0.049191542
84	0xbd16cd17	-0.036816683
85	0xbcec15fe	-0.02881908
86	0xbd605e7e	-0.054777615
87	0xbe6301d0	-0.2216866
88	0xbec7b880	-0.3900795
89	0xbd3b5301	-0.045733456
90	0xba5224aa	-0.00080163276
91	0x3df28993	0.118426464
92	0x3cadac2c	0.021200262
93	0xbe40741c	-0.18794292
94	0xbdb8f37c	-0.09030816
95	0x3d96e4a6	0.0736783
96	0x3c1b219f	0.009468465
97	0x3e104a87	0.1409093
98	0x3eac8194	0.3369261
99	0x3e22d4d6	0.15901503
100	0x3e1b114d	0.15143318
101	0x3e406f18	0.18792379
102	0xbe4e7ec1	-0.2016554
103	0xbdc886a1	-0.097913034
104	0xbdee0f5f	-0.116240256
105	0xbebe430d	-0.3716053
106	0x3d597749	0.053092275
107	0xbeaca2d3	-0.33717975
108	0xbe96691f	-0.29377076
109	0x3c750198	0.014953993
110	0xbed31b2c	-0.41231668
111	0xbd2ff89f	-0.042961713
112	0x3d1b8e9e	0.037977807
113	0x3cc4925e	0.023995575
114	0xbe122cdc	-0.14274925
115	0x3ddc5ebe	0.10760258
116	0xbebf6360	-0.37380505
117	0xbe49ded2	-0.19713905
118	0x3d7551d3	0.059892487
119	0xbba1f2fd	-0.0049422965
120	0xbe70fd23	-0.23534064
121	0xbdec6920	-0.115434885
122	0x3ed2cc4a	0.41171485
123	0xbd01ea6a	-0.031717695
124	0x3e84f120	0.25965214
125	0x3e8b24b4	0.2717644
126	0x3ed0dd4a	0.4079383
127	0x3e65b003	0.22430424
128	0x3e914b33	0.28377685
129	0xbeb74f90	-0.3580289
130	0x3d987d41	0.07445765
131	0xbc1a656d	-0.009423596
132	0x3d86ae64	0.06576231
133	0xbdeb718c	-0.11496267
134	0xbd3a2eff	-0.045454975
135	0xbd9cc5d0	-0.07654917
136	0x3ec1bcd1	0.37839368
137	0x3ece4c61	0.40292647
138	0x3dcf3305	0.10117153
139	0x3d09f8d8	0.03368458
140	0xbea15680	-0.31511307
141	0xbe9308c9	-0.2871764
142	0x3c03c380	0.008042216
143	0x3d9bbe77	0.07604688
144	0x3e50df1c	0.2039761
145	0x3ed5cbc8	0.41757035
146	0x3e8cf1ee	0.27528328
147	0xbe0737e0	-0.13204908
148	0xbebe7ed5	-0.3720614
149	0xbe847702	-0.25872046
150	0x3da35baa	0.07976468
151	0x3d799887	0.060936477
152	0xbb833f48	-0.0040053464
153	0xbe044da3	-0.12920241
154	0xbdbbce09	-0.091701575
155	0xbf128f34	-0.5724976
156	0xbd27b19f	-0.040940877
157	0x3ecd87da	0.4014271
158	0x3dde62b7	0.10858672
159	0x3d9fa20c	0.0779458
160	0x3dfec2e0	0.12439513
161	0xbee889f8	-0.45417762
162	0x3da5e723	0.081007265
163	0x3e32ccd1	0.17460944
164	0x3ddc6cae	0.107629165
165	0x3da34020	0.07971215
166	0xbd0247a3	-0.0318066
167	0xbcf10dea	-0.02942558
168	0xbe41b3c3	-0.1891623
169	0xbcf597b1	-0.029979559
170	0xbccb34ef	-0.024805514
171	0xbe0f8767	-0.14016496
172	0xbd01193c	-0.031518206
173	0xbe0fec9a	-0.140551
174	0xbe4800bc	-0.1953153
175	0xbd354384	-0.04425384
176	0xbe510879	-0.20413388
177	0x3d3ac804	0.045600906
178	0x3e447fd0	0.19189382
179	0xbe0b7130	-0.13617396
180	0xbe850aed	-0.25984898
181	0xbdc14aff	-0.094381325
182	0x3d8f7848	0.07005364
183	0x3b4a3c14	0.0030858563
184	0x3eb5c67a	0.35502988
185	0x3eaa1625	0.3322002
186	0xbe7544c7	-0.23952018
187	0xbe05883c	-0.1304025
188	0x3d5aee6e	0.05345004
189	0x3e2cbefc	0.1686973
190	0xbe51dcde	-0.2049441
191	0xbddf3907	-0.10899549
192	0xbea66346	-0.32497615
193	0xbd910b3d	-0.07082222
194	0xbd4b1fb5	-0.049590785
195	0x3e960b75	0.29305616
196	0x3d0f97e5	0.035056967
197	0x3d239a5b	0.039942127
198	0xbb2637f7	-0.0025362947
199	0x3b3ffd90	0.0029295422
200	0x3dc68846	0.09693961
201	0xbe07f44b	-0.13276784
202	0x3e5121dc	0.20423073
203	0xbdaafee3	-0.08349397
204	0xbd0ff4b3	-0.035145473
205	0xbe4c31da	-0.19940892
206	0xbcefe70a	-0.029284973
207	0x3d848f83	0.06472685
208	0xbe882966	-0.26594085
209	0x3ec25ef0	0.37963057
210	0xbe67638a	-0.22596565
211	0xbdb79303	-0.08963587
212	0x3e9da706	0.3079149
213	0xbf22033f	-0.63286203
214	0xbd9cae61	-0.07650448
215	0x3ddd0e37	0.10793727
216	0x3e93b366	0.28847808
217	0x3d9563c6	0.07294421
218	0xbeb70fd1	-0.35754254
219	0xbe4c9450	-0.19978452
220	0x3e4173dd	0.18891855
221	0xbe0c9aec	-0.13730973
222	0xbe77a333	-0.2418335
223	0xbda83ce3	-0.08214738
224	0xbd81ba1f	-0.06334328
225	0x3d923eaa	0.071408585
226	0xbdcbf8a1	-0.099595316
227	0x3e5e3f3e	0.21703812
228	0x3d8964cd	0.06708679
229	0x3f043125	0.5163749
230	0x3e0556b4	0.13021356
231	0x3e1a2f67	0.15057145
232	0xbd3b6c2e	-0.045757465
233	0xbd40f79a	-0.04711113
234	0xbeaa9ed9	-0.33324316
235	0xbef38caa	-0.47568256
236	0xbec24117	-0.37940285
237	0x3e6b7383	0.22993283
238	0x3ecb1832	0.39666897
239	0xbd2fbc29	-0.042904053
240	0xbd8738aa	-0.06602605
241	0xbe0675e2	-0.13130906
242	0xbe83ad39	-0.25718096
243	0xbecd3c44	-0.40085042
244	0xbdf64490	-0.12024796
245	0x3da30afc	0.079610795
246	0xbeec054e	-0.46097797
247	0x3e01559d	0.12630315
248	0x3ed55929	0.41669586
249	0xbef1d737	-0.47234508
250	0xbe199758	-0.1499914
251	0x3dc37dd3	0.095454834
252	0xba08d930	-0.0005220352
253	0x3d3adc2f	0.04562014
254	0x3ddeeb27	0.108846955
255	0xbe35162b	-0.17684238

pre_layer.3.bias f4 [16]
0	0x3d4638e8	0.048394114
1	0x3e3c3021	0.18377735
2	0x3d1b7e64	0.037962332
3	0xbdc54c6b	-0.09633716
4	0xbe3e182f	-0.18563913
5	0x3db0157d	0.085978486
6	0xbcf51fd5	-0.029922405
7	0x3d7a126d	0.06105273
8	0x3e13d9a1	0.14438488
9	0xbde594c1	-0.11210013
10	0x3e128928	0.14310133
11	0xbca7ca1f	-0.020482121
12	0xbdb6ecec	-0.08931908
13	0x3de05b8c	0.10954961
14	0x3c9536c2	0.018214587
15	0x3db999c6	0.09062533

pre_layer.5.weight f4 [32, 16, 3, 3]
0	0x3eeedabb	0.46651253
1	0x3e55f3c4	0.2089377
2	0x3f1b514b	0.6067092
3	0xbdf2464c	-0.11829814
4	0xbcaf5a6e	-0.021405425
5	0x3daf2eed	0.08553872
6	0xbeabdbe3	-0.33566198
7	0xbd6192a9	-0.055071507
8	0xbcf9f034	-0.030510046
9	0xbde82bdb	-0.1133649
10	0xbeae22f2	-0.34011036
11	0x3e437910	0.1908915
12	0xbe2afeb0	-0.16698718
13	0xbd7075a0	-0.058705926
14	0xbec987c8	-0.39361405
15	0x3d93d214	0.072178036
16	0xbe0c7b3a	-0.13718882
17	0xbead1477	-0.33804676
18	0xbe0bf27e	-0.13666722
19	0x3e7e9829	0.24862732
20	0x3e83d0a7	0.25745127
21	0xbd985352	-0.07437767
22	0x3e387a6a	0.18015447
23	0xbe5457cd	-0.20736618
24	0xbecdbaae	-0.40181488
25	0xbe942c7a	-0.28940183
26	0xbdee6a8f	-0.11641418
27	0x3d293ad4	0.04131587
28	0xbe986642	-0.29765517
29	0xbe1dea1c	-0.15421337
30	0xbe6f1dd3	-0.23351221
31	0xbeaa5472	-0.33267552
32	0xbdbb7e15	-0.091549076
33	0xbc92a94b	-0.01790299
34	0x3e8f743a	0.2801836
35	0x3ec6d2a6	0.38832587
36	0x3e6d2cec	0.23161668
37	0x3e2a70a5	0.16644533
38	0x3eb5f228	0.35536313
39	0x3f028933	0.509906
40	0x3ecf584e	0.4049706
41	0x3ee2ed1d	0.44321528
42	0x3f28cbc4	0.6593592
43	0x3dff6a58	0.12471455
44	0x3e9b02a4	0.30275452
45	0xbe6dfde9	-0.2324139
46	0x3e0dc3a8	0.13844168
47	0xbe10fc3b	-0.14158718
48	0x3ca78cd7	0.0204529
49	0x3ec9a86d	0.3938631
50	0x3e0783c7	0.13233863
51	0xbe0cb256	-0.13739905
52	0x3d066be3	0.032817733
53	0xbe35941c	-0.1773228
54	0x3eab835b	0.33498654
55	0x3d4ac9be	0.049508803
56	0x3cec9f0c	0.028884433
57	0x3e954366	0.29152983
58	0xbcd29df6	-0.025710087
59	0x3e28f9f2	0.16501597
60	0x3eef469a	0.46733552
61	0xbda714b0	-0.08158243
62	0xbe03faa7	-0.12888585
63	0x3e8d0978	0.27546287
64	0xbd95a1d6	-0.073062584
65	0x3e899399	0.2687042
66	0xbd9b7bbb	-0.07591959
67	0xbe7d84e5	-0.24757726
68	0xbd896baa	-0.067099884
69	0xbe8378d4	-0.25678122
70	0xbda4e402	-0.080513015
71	0xbe498d89	-0.19682898
72	0x3f237437	0.63849205
73	0x3ec8f53f	0.39249608
74	0x3ed74348	0.4204352
75	0x3edf7c32	0.4364944
76	0x3f228896	0.63489664
77	0x3e9247f7	0.2857053
78	0xbd995c61	-0.07488323
79	0x3ee717ed	0.4513544
80	0x3cedb501	0.029016973
81	0x3ec07aa3	0.37593564
82	0x3e486ce7	0.19572793
83	0x3dc14136	0.09436266
84	0x3d2d852b	0.042363327
85	0x3e046764	0.12930065
86	0xbde4803c	-0.11157271
87	0x3e588bf6	0.21147141
88	0x3e2dec99	0.16984786
89	0x3e285421	0.16438343
90	0x3dfa8fb3	0.1223444
91	0xbe07b568	-0.13252795
92	0x3d645d80	0.05575323
93	0x3d790006	0.060791038
94	0xbd2564da	-0.040379383
95	0x3c77fa20	0.015135318
96	0xbe75bef7	-0.23998629
97	0xbde48f2d	-0.11160121
98	0x3d1d575e	0.038413398
99	0xbe175e05	-0.1478196
100	0xbd79fac0	-0.06103015
101	0xbbb4fc43	-0.005523236
102	0xbe09957e	-0.13435933
103	0xbd3e073f	-0.04639363
104	0xbe1c0c2f	-0.15239023
105	0x3df2480d	0.11830149
106	0x3d943efd	0.072385766
107	0x3e899b52	0.26876312
108	0x3cf70d9d	0.030157859
109	0x3e6575e9	0.2240826
110	0x3de8893a	0.11354299
111	0x3ef01155	0.46888223
112	0x3ea43f47	0.32079527
113	0x3e617952	0.22018936
114	0xbcc8c1cf	-0.024506478
115	0x3dd566e7	0.10420018
116	0x3ef870f2	0.4852367
117	0xbcc79bfc	-0.024366371
118	0x3f03a944	0.51430154
119	0x3e4b4b41	0.19852926
120	0xbc4a73ca	-0.012356708
121	0x3eaa727f	0.3329048
122	0x3df78046	0.12085013
123	0xbd6225e8	-0.05521193
124	0xbe620fc0	-0.2207632
125	0xbe9347c4	-0.2876569
126	0x3e8971ed	0.2684473
127	0xbd3e67c9	-0.046485696
128	0xbd014734	-0.031562045
129	0xbd94fe29	-0.0727504
130	0xbe062ac4	-0.13102251
131	0xbdeb8c0a	-0.1150132
132	0xbd96e7aa	-0.07368405
133	0xbde2b5c6	-0.11069827
134	0xbe243fc6	-0.16039953
135	0x3c796b5c	0.01522335
136	0x3d9fe2f0	0.07806957
137	0x3f3a5f1a	0.72801363
138	0xbe286cc2	-0.16447738
139	0xbd13328f	-0.03593689
140	0x3ecb7b54	0.3974253
141	0xbe4928ab	-0.1964442
142	0xbe49fa40	-0.19724369
143	0x3de0e06c	0.10980305
144	0x3e7d2606	0.24721536
145	0x3ceda975	0.029011467
146	0x3e2be9f9	0.16788472
147	0xbe111e42	-0.14171699
148	0xbd73065d	-0.05933224
149	0x3d5a8f1b	0.053359132
150	0x3e25c554	0.16188556
151	0x3e4172ca	0.18891445
152	0x3dcf7e42	0.10131504
153	0xbd4940bb	-0.049133997
154	0xbd8ea0ff	-0.06964301
155	0x3e45b611	0.19307734
156	0xbd6c4850	-0.05768615
157	0xbdfbd2c5	-0.122960605
158	0xbe56d374	-0.209791
159	0xbd4fd5be	-0.05074095
160	0x3e3afa4f	0.18259548
161	0xbe5ef938	-0.21774757
162	0xbe12ebad	-0.14347716
163	0xbe046678	-0.12929714
164	0x3cf2f67c	0.029658549
165	0xbd3daed3	-0.046309303
166	0x3d313cc0	0.043270826
167	0xbe06cb39	-0.13163461
168	0xbe840c75	-0.25790754
169	0xbec4f62d	-0.38469067
170	0xbe8102bc	-0.251974
171	0x3cc151cc	0.023598574
172	0x3e199a09	0.15000166
173	0x3e445cdd	0.1917605
174	0x3d056bae	0.032573394
175	0xbda41cae	-0.08013283
176	0x3b4fb04c	0.0031690774
177	0x3d864e7e	0.0655794
178	0x3d3f333e	0.046679728
179	0x3db7754e	0.08957921
180	0xbd37c416	-0.044864736
181	0x3e9490ae	0.29016632
182	0x3efc9d77	0.49338886
183	0x3ec43d64	0.38328087
184	0x3ea5004b	0.32226786
185	0x3eadfc36	0.33981484
186	0x3e885ccc	0.26633298
187	0xbc7e85f9	-0.015534871
188	0x3d566d1f	0.05235016
189	0xbe5aae39	-0.21355523
190	0x3cf44cc9	0.02982177
191	0xbe5a46d9	-0.21316089
192	0xbe5cb4c2	-0.21553329
193	0x3dd554ff	0.10416602
194	0x3dbc0af6	0.09181778
195	0xbc8cfafc	-0.017209522
196	0x3e009d81	0.12560083
197	0xbe60540e	-0.21907064
198	0x3e6b90e1	0.23004486
199	0x3e0258a0	0.1272912
200	0x3e262559	0.16225185
201	0x3e572876	0.21011528
202	0x3d49fdc6	0.049314283
203	0x3e1ce95d	0.15323396
204	0x3e9f6c61	0.31137374
205	0xbd0d2d73	-0.034467172
206	0x3d2d5be5	0.042323966
207	0xbd1ea020	-0.038726926
208	0xbdd0b937	-0.10191577
209	0x3e05714a	0.13031498
210	0x3ce124c0	0.027483344
211	0xbdfc3138	-0.12314075
212	0xbe1ccd95	-0.15312798
213	0xbe1c3e1f	-0.15258072
214	0x3dbe4e0a	0.092922285
215	0xbdcf1385	-0.10111145
216	0x3ebe0b75	0.37118116
217	0x3e6ede6e	0.23327038
218	0x3e82645f	0.25467202
219	0x3f034d6a	0.5129
220	0x3f107fff	0.56445307
221	0x3e1db279	0.15400113
222	0x3e3ec614	0.18630248
223	0x3e60465b	0.21901838
224	0x3e7efa98	0.24900281
225	0x3d935cb3	0.07195415
226	0x3eab4cd3	0.3345705
227	0x3e4bc6ed	0.19900103
228	0xbd74ae90	-0.05973679
229	0x3f06fa6a	0.5272585
230	0x3c480c00	0.012209892
231	0xbccf0a8c	-0.025273584
232	0x3d6fd247	0.058550145
233	0x3c911f43	0.017715102
234	0xbd848e87	-0.064724974
235	0xbe1d8f54	-0.15386707
236	0xbd77476d	-0.06037085
237	0xbd990102	-0.07470895
238	0xbe64d658	-0.2234739
239	0x3e077b45	0.13230617
240	0xbe516c4c	-0.20451468
241	0xbe4479d2	-0.19187096
242	0x3e544e78	0.20733058
243	0xbe35ee86	-0.1776677
244	0x3c5237ae	0.012830658
245	0x3c4a409a	0.012344504
246	0x3cd157ea	0.025554616
247	0xbdde8be0	-0.10866523
248	0xbd0350da	-0.032059528
249	0x3c680e45	0.014163558
250	0x3d657e98	0.056028932
251	0x3d8946fb	0.067029916
252	0x3d4d7630	0.05016154
253	0x3e09f766	0.13473281
254	0x3dabe20c	0.083927244
255	0x3ee6da02	0.45088202

pre_layer.5.bias f4 [32]
0	0xbd6990c1	-0.057022814
1	0x3d50102c	0.050796673
2	0x3c206cb1	0.009791539
3	0x3d65b476	0.056080304
4	0x3e6406b0	0.22268176
5	0x3c16f9a8	0.009214796
6	0x3e716c76	0.23576531
7	0x3d3357a9	0.04378477
8	0x3c47065d	0.012147513
9	0xbc2866e0	-0.010278434
10	0x3d78f013	0.060775828
11	0x3e470152	0.19434097
12	0x3e3a8649	0.18215288
13	0x3c0be2ad	0.00853793
14	0x3e4816ab	0.19539897
15	0x3e4d61b2	0.20056799
16	0x3d25bbe8	0.040462404
17	0x3e8f5db9	0.28001192
18	0x3dc3174a	0.095259264
19	0x3d75b18c	0.059983775
20	0x3d75f376	0.060046636
21	0x3ebd5f7e	0.36986917
22	0x3d78ce30	0.06074351
23	0x3c99ad17	0.018759293
24	0x3ccea8aa	0.02522691
25	0x3e015372	0.12629488
26	0x3e6dfb72	0.2324045
27	0x3d0543e4	0.03253545
28	0x3e68b5b1	0.2272556
29	0x3d057c23	0.03258909
30	0x3d108dcc	0.035291478
31	0x3da8f3e4	0.082496434

conv4_1.weight f4 [1, 32, 1, 1]
0	0xbfa6486e	-1.2990854
1	0xbf102183	-0.56301135
2	0xbee7636d	-0.45193043
3	0xbf0ea2af	-0.55716985
4	0x3f2af735	0.6678346
5	0xbedca30a	-0.4309314
6	0x3f07c07f	0.530281
7	0x3bb46578	0.00550526
8	0xbf11b7cd	-0.5692108
9	0xbed85461	-0.42251876
10	0xbf10991a	-0.56483614
11	0xbe2c634d	-0.16834755
12	0x3e618cf8	0.22026432
13	0xbf171e5d	-0.59030706
14	0x3f38c29c	0.7217195
15	0x3f2e2e6a	0.6803957
16	0xbf1e7a74	-0.619056
17	0x3f1192ae	0.5686444
18	0xbe5a438d	-0.21314831
19	0xbed4dab8	-0.4157312
20	0xbf042772	-0.5162269
21	0x3fab7001	1.3393556
22	0xbee64984	-0.44977963
23	0xbefbbf49	-0.49169376
24	0xbed6dac7	-0.4196379
25	0xbed32a30	-0.41243124
26	0x3f359109	0.7092443
27	0xbed7e098	-0.4216354
28	0x3f3946b1	0.7237349
29	0xbe98fe11	-0.29881337
30	0xbf4c9609	-0.79916435
31	0xbeeca8f0	-0.4622264

conv4_2.weight f4 [4, 32, 1, 1]
0	0x3d1c323d	0.03813385
1	0xbb0c8c99	-0.0021446107
2	0xbd97a4fc	-0.07404515
3	0x3e934cb7	0.28769466
4	0x3da90f34	0.08254853
5	0x3dbab440	0.09116411
6	0xbc0438e3	-0.0080702035
7	0x3e376678	0.17910182
8	0x3e5f7f50	0.2182591
9	0xbda97f4e	-0.082762346
10	0xbdf771dd	-0.120822646
11	0xbe8187cd	-0.2529892
12	0xbd50a3b4	-0.05093737
13	0xbe308ccb	-0.17241208
14	0xbd456707	-0.048193958
15	0x3e1bb044	0.15203959
16	0xbd274a69	-0.040842447
17	0xbe012824	-0.12612969
18	0xbe55301d	-0.20819135
19	0xbe448b29	-0.1919371
20	0x3c1f1bff	0.009711265
21	0xbd9a869b	-0.07545205
22	0x3e446768	0.19180071
23	0x3e3567e1	0.17715408
24	0xbcfdd998	-0.030987546
25	0x3d37df9d	0.04489099
26	0xbdb3b0af	-0.08773934
27	0xbe2713a0	-0.1631608
28	0x3e01609e	0.12634513
29	0xbe7ce709	-0.24697508
30	0xbe225694	-0.1585334
31	0x3e2d262a	0.1690909
32	0x3da59451	0.0808493
33	0xbe9fc418	-0.31204295
34	0x3e527ef9	0.20556249
35	0x3d3da899	0.046303365
36	0x3da2b3f8	0.079444826
37	0xb955e332	-0.000203979
38	0xbbe012cf	-0.0068381797
39	0x3bc60ed1	0.0060442467
40	0x3e067a0a	0.13132492
41	0x3e824315	0.25441805
42	0xbdc433f2	-0.0958022
43	0xbe1fa319	-0.1558956
44	0xbe2417c2	-0.16024688
45	0x3e228d19	0.15874137
46	0x3c4e2561	0.012582154
47	0xbe2382d5	-0.15967877
48	0x3e24b5bf	0.16084956
49	0xbdec9878	-0.115525186
50	0xbe21ec45	-0.15812786
51	0xbdc6652e	-0.09687267
52	0xbe19aabc	-0.15006536
53	0x3dc011da	0.09378405
54	0xbe87fc77	-0.26559803
55	0x3e175123	0.14777045
56	0x3e2573b8	0.16157424
57	0xbdcce1cd	-0.100040056
58	0x3d5f1275	0.05446096
59	0xbca2768b	-0.019831916
60	0xbdc87b52	-0.097891465
61	0x3e2680a2	0.16260007
62	0x3e13299f	0.14371346
63	0xbe283889	-0.16427816
64	0xbd861a0e	-0.06547938
65	0x3db58343	0.08862927
66	0xbd293179	-0.041306946
67	0x3e1c6902	0.15274432
68	0xbe50ac1a	-0.20378152
69	0x3e48eedf	0.19622372
70	0xbde526d4	-0.111890465
71	0x3e5cb2fc	0.21552652
72	0x3e525c4a	0.20543018
73	0xbd187e30	-0.037229717
74	0xbdfa768a	-0.12229641
75	0x3bb06354	0.0053829346
76	0xbe6fe284	-0.23426253
77	0xbc500efd	-0.012698886
78	0x3d8e7549	0.06955964
79	0x3d03ec51	0.03220779
80	0xbe7404a2	-0.23829892
81	0xbdf35707	-0.118818335
82	0x3e0189e1	0.12650253
83	0xbd9f6716	-0.07783334
84	0xbdcc7ebc	-0.0998511
85	0x3e21e969	0.15811695
86	0xbca266dd	-0.01982444
87	0xbe2dd96a	-0.16977468
88	0xbea06086	-0.31323642
89	0x3d830971	0.06398285
90	0xbe076561	-0.13222267
91	0x3e9cecdd	0.30649462
92	0x3dec925c	0.11551353
93	0xbc5fb668	-0.013654329
94	0x3df9f4c2	0.12204887
95	0xbe56c020	-0.20971727
96	0x3e322484	0.17396742
97	0x3e2ac2d8	0.1667589
98	0xbdb8f5d0	-0.0903126
99	0xbd9b8b10	-0.075948834
100	0x3d10fe32	0.03539867
101	0xbd0c078c	-0.034186885
102	0xbea75077	-0.32678577
103	0x3d7795ab	0.06044547
104	0x3d81c7f2	0.06336965
105	0x3e6fd458	0.23420846
106	0x3e2374f9	0.1596259
107	0x3e8ebf96	0.27880543
108	0x3dcf615c	0.10125992
109	0xbd5e6867	-0.054298785
110	0xbbb7c459	-0.0056081233
111	0x3d810bb1	0.06301058
112	0xbe6dd099	-0.23224105
113	0x3e29644e	0.1654217
114	0xbdfb99a5	-0.12285165
115	0x3e9e5058	0.30920672
116	0xbda6dcee	-0.08147608
117	0xbd25513e	-0.04036068
118	0x3d2609e0	0.04053676
119	0x3cd9ca73	0.026585793
120	0x3e68d16c	0.22736138
121	0xbe4a36e0	-0.19747496
122	0x3e7826a8	0.24233496
123	0xbe906cad	-0.28207913
124	0xbc4054a9	-0.011738935
125	0xbe0c40e7	-0.13696633
126	0xbdba03e3	-0.090827726
127	0xbe588ce5	-0.21147497

conv4_2.bias f4 [4]
0	0x3d55f7bb	0.052238207
1	0x3d74cc69	0.059765253
2	0x3d158013	0.036499094
3	0x3d49ab14	0.04923542

conv4_3.weight f4 [10, 32, 1, 1]
0	0xbe767eb4	-0.24071771
1	0x3e04716a	0.12933889
2	0xbe11a43c	-0.14222807
3	0xbe94208a	-0.28931075
4	0xbe6c291e	-0.2306256
5	0xbe37339d	-0.17890783
6	0x3bd25c00	0.0064196587
7	0x3cbd2d40	0.023092866
8	0xbe88cb1e	-0.26717466
9	0xbe1cddb2	-0.15318945
10	0xbebff470	-0.3749118
11	0xbe40ae6b	-0.18816535
12	0xbebfbf5a	-0.37450677
13	0xbe2c5908	-0.16830838
14	0x3e72f3ee	0.23725864
15	0x3e0a3f86	0.13500795
16	0x3dedb308	0.11606413
17	0xbe9b3983	-0.30317315
18	0x3e688276	0.22706017
19	0x3d9b1754	0.07572809
20	0xbe09131e	-0.13386199
21	0x3e16807a	0.14697447
22	0xbd9b0ac0	-0.0757041
23	0xbe3f037c	-0.18653673
24	0xbc5f63c0	-0.013634622
25	0xbe5ef2c3	-0.21772294
26	0x3e96ef39	0.29479387
27	0xbe146b9f	-0.14494179
28	0xbe96f534	-0.2948395
29	0xbeaf3572	-0.34220463
30	0x3e8a5cf7	0.27024052
31	0x3eb33f7b	0.3500937
32	0x3e10888a	0.14114586
33	0xbeaf78e9	-0.34271935
34	0xbd8756e0	-0.06608367
35	0x3d6006e0	0.054694057
36	0xbe59bc0a	-0.21263137
37	0x3ce15540	0.02750647
38	0x3c921a50	0.017834812
39	0x3b0b7800	0.0021281242
40	0x3e43469a	0.19069901
41	0x3e889771	0.2667804
42	0xbeb5a6d4	-0.35478842
43	0x3e559fda	0.2086176
44	0x3e5910ce	0.21197817
45	0x3e3e187a	0.18564025
46	0xbeb5e257	-0.35524246
47	0x3e0a8612	0.13527706
48	0x3e20d676	0.1570681
49	0xbe4f44d3	-0.20241098
50	0xbdf892e8	-0.12137395
51	0xbe4f4653	-0.2024167
52	0xbdb27ae0	-0.08714843
53	0x3e557a7e	0.20847508
54	0x3ea6a16f	0.3254504
55	0xbea38077	-0.31933948
56	0xbe54db26	-0.20786723
57	0x3e3707be	0.17874047
58	0xbca80e60	-0.020514667
59	0x3deb41b4	0.11487141
60	0xbe4dca48	-0.20096695
61	0xbd928168	-0.071535885
62	0x3ccca740	0.024982095
63	0x3e96bfd5	0.2944323
64	0xbd99bf0c	-0.075071424
65	0x3d94a8cc	0.07258758
66	0x3d19f4f8	0.037587136
67	0x3c372ce0	0.011180133
68	0xbc59aee0	-0.013286322
69	0xbe25e0f5	-0.16199096
70	0x3ebd96d9	0.3702915
71	0x3eb3c3eb	0.3511041
72	0xbe94bca6	-0.29050177
73	0xbe5ab1c3	-0.21356873
74	0x3e52a53e	0.20570847
75	0xbe4fd4d7	-0.20296036
76	0xbeb71c07	-0.3576357
77	0xbe0a71f7	-0.13520037
78	0xbd095878	-0.033531636
79	0xbeaebdf9	-0.34129313
80	0x3c6b6e60	0.014369577
81	0xbe24250d	-0.16029759
82	0xbe2e7987	-0.17038547
83	0x3cc6bce0	0.024259984
84	0xbdd787ec	-0.10523972
85	0xbeb92762	-0.3616286
86	0x3e4465d2	0.19179466
87	0x3eb2a2dd	0.3488988
88	0xbea8a72f	-0.3294005
89	0xbeb68910	-0.35651445
90	0xbebb3ab5	-0.36568227
91	0xbe99c91e	-0.30036253
92	0xbd5b1a28	-0.05349174
93	0x3eb97bb1	0.36227182
94	0x3ebe350d	0.3714985
95	0xbdf81da8	-0.121150315
96	0x3eaca477	0.33719227
97	0xbdeea184	-0.116519004
98	0xbd759980	-0.059960842
99	0xbdad4688	-0.084607184
100	0x3eab0afb	0.33406815
101	0x3e826061	0.25464156
102	0xbe71bf86	-0.23608217
103	0xbe88ca06	-0.26716632
104	0xbe630b18	-0.221722
105	0xbea8ca92	-0.3296705
106	0x3e6e1fae	0.23254272
107	0xbe9cae8f	-0.30601928
108	0x3e19b3aa	0.15009943
109	0xbea269a2	-0.31721216
110	0x3d906484	0.07050422
111	0x3e1bde1e	0.1522145
112	0x3e2a9f56	0.16662344
113	0x3e413d1e	0.1887097
114	0xbe0bd3d5	-0.13655026
115	0xbcb060c0	-0.021530509
116	0xbd9438ac	-0.07237372
117	0xbe3eee85	-0.18645675
118	0xbe6b6d02	-0.22990802
119	0x3e01f6e2	0.12691835
120	0x3d8b3058	0.0679633
121	0xbea4a44b	-0.32156596
122	0x3cf1b370	0.029504508
123	0x3da10fe4	0.07864359
124	0xbe91ed08	-0.28501153
125	0xbe81f610	-0.25383043
126	0x3de9de90	0.114194036
127	0xbde48a28	-0.11159164
128	0xbe88f29f	-0.26747605
129	0x3eb1c96d	0.34723988
130	0x3ea96815	0.3308722
131	0xbe99956b	-0.2999681
132	0xbeb8ed35	-0.36118475
133	0x3d6660e8	0.05624476
134	0x3cc6f6f0	0.02428767
135	0x3e9fdb81	0.31222156
136	0x3e434b06	0.19071588
137	0x3e203afa	0.15647498
138	0xbea97627	-0.33097956
139	0x3eb002cd	0.34377137
140	0xbe79201b	-0.24328654
141	0xbeb3851b	-0.3506249
142	0x3da4d754	0.08048883
143	0x3b966e00	0.0045907497
144	0xbda22094	-0.0791637
145	0xbe9e5aa5	-0.3092853
146	0x3e3e82ae	0.18604538
147	0xbd65c1c0	-0.056092978
148	0x3ea2ed3f	0.3182163
149	0xbdce6d2c	-0.10079417
150	0x3eb8c459	0.360873
151	0xbe694ec6	-0.22783956
152	0x3df0fadc	0.11766598
153	0x3dd55b08	0.104177535
154	0x3e881b85	0.26583496
155	0xbc333520	-0.010937959
156	0x3d3c5090	0.045975268
157	0xbeaf91a0	-0.3429079
158	0x3dc1d51c	0.094644755
159	0x3c835b00	0.016034603
160	0xbe6a525a	-0.22882977
161	0x3e16f56e	0.14742061
162	0xbe0f7b7f	-0.14011954
163	0x3da813b8	0.08206886
164	0xbc509180	-0.012730002
165	0xbebc9761	-0.36834243
166	0xbea966e5	-0.33086315
167	0x3d809864	0.06279066
168	0xbd650690	-0.05591446
169	0x3d925a64	0.07146147
170	0xbe8d786a	-0.2763093
171	0xbdf3b270	-0.118992686
172	0x3eb67b7f	0.35641095
173	0xbdf2a174	-0.11847201
174	0x3b313500	0.0027039647
175	0xbddcaeac	-0.107755035
176	0x3e9e9b4f	0.30977866
177	0xbdfef508	-0.1244908
178	0x3cb1bc90	0.021696359
179	0x3ea36873	0.31915626
180	0x3dffaa14	0.12483612
181	0xbe9db5d2	-0.3080278
182	0x3dbc4428	0.09192687
183	0x3e80d955	0.2516581
184	0x3dc5bc90	0.09655106
185	0x3e1ed106	0.15509424
186	0x3e773e96	0.24144968
187	0xbd9a5c78	-0.07537168
188	0xbce0c790	-0.027438909
189	0xbdba54ac	-0.09098181
190	0xbe66c8f3	-0.22537594
191	0x3e31dbf2	0.17369059
192	0xbeb1f8c7	-0.34760115
193	0xbe4016a7	-0.18758641
194	0x3e3de5d6	0.18544707
195	0xbea6e009	-0.325928
196	0x3d9ec100	0.077516556
197	0x3e91c0d5	0.28467432
198	0x3e1f93a2	0.15583661
199	0x3e36ebaa	0.17863336
200	0x3e8e311d	0.27771845
201	0x3eaeb4f9	0.34122446
202	0xbe106c49	-0.14103808
203	0x3d83edd8	0.064418495
204	0xbdc7d640	-0.09757662
205	0xbe3841f1	-0.17993905
206	0xbe1542e2	-0.14576295
207	0x3e67a402	0.22621158
208	0xbe7aeb76	-0.24503884
209	0x3e00261e	0.1251454
210	0x3e3f0486	0.1865407
211	0xbeb04f4d	-0.34435502
212	0x3e815ff7	0.25268528
213	0x3e6e1ff6	0.2325438
214	0xbe92b968	-0.2865708
215	0xbe5f7a6d	-0.21824045
216	0xbe40f8a1	-0.18844844
217	0x3e01ac3e	0.12663361
218	0xbea04874	-0.31305277
219	0xbea7631a	-0.32692796
220	0x3b955300	0.0045570135
221	0xbeb1fb4c	-0.34762037
222	0x3c8db900	0.017300129
223	0xbe624240	-0.22095585
224	0xbe7fcf15	-0.2498134
225	0x3ebb868b	0.36626086
226	0x3d91aa34	0.07112542
227	0xbe900cb9	-0.28134707
228	0xbead9c0a	-0.3390811
229	0xbeb7a1f0	-0.35865736
230	0x3dbd3c84	0.09240058
231	0xbe7b9761	-0.24569465
232	0x3e1c3762	0.15255502
233	0xbe1055ea	-0.14095274
234	0x3e9e4af9	0.30916575
235	0x3d9ebd40	0.0775094
236	0x3e85787b	0.26068482
237	0xbd67c108	-0.056580573
238	0xbc3b9060	-0.011447996
239	0x3e205b5a	0.15659848
240	0x3d3b8080	0.045776844
241	0x3ce3e8e0	0.027821004
242	0xbe7735fe	-0.2414169
243	0xbe8d165a	-0.27556115
244	0xbe846f5a	-0.25866205
245	0xbe7cf694	-0.24703437
246	0x3d21a990	0.039468348
247	0xbd84171c	-0.0644972
248	0xbde089d4	-0.10963789
249	0xbe9dbb41	-0.30806926
250	0xbd85c694	-0.065320164
251	0xbe0a9b30	-0.13535762
252	0x3d6f4208	0.05841258
253	0x3b3d8900	0.002892077
254	0xbe9789d6	-0.29597348
255	0xbebf936c	-0.3741716

conv4_3.bias f4 [10]
0	0x3dcccccd	0.1
1	0x3dcccccd	0.1
2	0x3dcccccd	0.1
3	0x3dcccccd	0.1
4	0x3dcccccd	0.1
5	0x3dcccccd	0.1
6	0x3dcccccd	0.1
7	0x3dcccccd	0.1
8	0x3dcccccd	0.1
9	0x3dcccccd	0.1
