P03_FaceRecognition/FaceDetect_MTCNN/model_for_use/rnet_epoch_30.pt (torch_old, 243380 bytes, 13 tensors)

pre_layer.0.weight f4 [28, 3, 3, 3]
000000 54 99 08 be 10 30 6c be 6b 8e 13 3e 14 86 4f be
       -0.1333974 -0.2306521 0.14409797 -0.2026599
000010 30 a7 f4 bc be 51 b2 3e dc cb 81 be 03 eb 58 3d
       -0.029864877 0.3482799 -0.25350845 0.0529585
000020 a0 d9 35 3e a2 2c c0 be 64 81 c3 be 6a 88 b9 3d
       0.17758799 -0.37534052 -0.38184655 0.09059222
000030 fd 15 e7 be ea 60 cd be 1b 61 4d 3e 9b 6b bc be
       -0.45133963 -0.40113002 0.20056574 -0.36800846
000040 1e 21 e2 bd 32 33 49 3e 15 39 b0 be 6f e0 2c be
       -0.11041473 0.19648436 -0.3441855 -0.1688249
000050 12 21 e3 3d 44 28 28 be 7e 0c 6a be 8a 0f 5c 3e
       0.11090292 -0.1642161 -0.22856328 0.21490303
000060 6d c7 9b be 8a 38 38 bd dc 66 6e 3e 06 08 16 3e
       -0.30425587 -0.044975795 0.23281425 0.14651498
000070 e8 30 5c be 84 a4 ea bd a8 34 8a 3c 1a 1d d3 be
       -0.21503031 -0.1145716 0.016870812 -0.4123314
000080 1c b0 ad be 6d 71 a7 3e fd 44 aa bd 57 fc 0a bd
       -0.33923423 0.32703725 -0.0831394 -0.033932056
000090 e4 b9 01 3e e9 8e 1d be e5 97 dd be b4 81 2a 3e
       0.12668568 -0.15386547 -0.4327995 0.1665104
0000a0 91 29 00 bf 3b 8f 27 bf db 47 f2 3d 03 e5 a0 be
       -0.50063425 -0.6545293 0.118301116 -0.31424722
0000b0 24 f0 b8 be e5 e8 1f 3e e2 38 8c bd 5d 6a a1 3d
       -0.36120713 0.15616186 -0.06846787 0.07881615
0000c0 77 49 8c 3e 12 66 26 3d 51 bb cc bd c2 05 b0 3e
       0.273998 0.040624686 -0.09996665 0.34379393
0000d0 89 f8 af 3d e5 80 f4 bd ab f1 8c bb b8 27 61 bd
       0.08592326 -0.11938647 -0.00430127 -0.05496952
0000e0 a9 66 e0 bd c4 f7 89 be 61 b4 36 bd c8 d6 e1 bc
       -0.10957081 -0.26946843 -0.044605616 -0.027568236
0000f0 ae 64 fb 3d 01 ae c6 3d dd 8e d5 3c 0f 2e fb bd
       0.122750625 0.09701157 0.0260691 -0.12264644
000100 d1 2b 2e be 36 91 8b bd 41 82 87 be 5c e4 55 be
       -0.17008902 -0.06814806 -0.26466563 -0.20887893
000110 9f 81 4f be a3 73 c9 bd 68 ae bd 3d 3c 5e e6 3d
       -0.2026429 -0.09836509 0.09261781 0.112484425
000120 8a c0 f9 bd 48 90 ad bb 56 fd 00 be f3 d6 17 bd
       -0.12194927 -0.0052967407 -0.1259664 -0.037070226
000130 5a dd 60 bd 4b 0a 3b be cb a1 12 3e 0f 55 ff 3d
       -0.054898597 -0.18265645 0.14319532 0.124673955
000140 0b 8e e3 bd 1f c1 f7 bc b3 32 82 bc a6 bf f8 3d
       -0.11111077 -0.030243455 -0.015893316 0.12145929
000150 f5 5a 8b be 1e 91 94 be ef 0a 2d be bf 10 88 bd
       -0.27217832 -0.29016966 -0.16898702 -0.06643819
000160 dd 00 79 be e6 d1 ad 3d 1e 6f 41 be 75 c6 50 3d
       -0.24316736 0.084873006 -0.18890044 0.050970513
000170 00 7b 9a 3d 15 37 71 be 17 b0 9d bd ea 26 59 be
       0.07542992 -0.23556168 -0.07699602 -0.21206251
000180 a7 cf ae be ce a7 72 be 11 da a7 3d 09 c3 29 3e
       -0.341428 -0.23696825 0.0819589 0.16578306
000190 11 c5 5f 3e f1 a6 30 3e cf ac 09 bc 13 77 59 38
       0.21852519 0.17251183 -0.008403017 5.1847728e-05
0001a0 16 78 dc 3d 79 62 b0 3c 16 59 e1 39 15 c2 72 3e
       0.10765092 0.02153133 0.00042981718 0.23706849
0001b0 ca ad 7c be a8 43 64 be b1 36 17 bd 85 09 8a be
       -0.2467567 -0.22291434 -0.036917392 -0.26960388
0001c0 57 d2 77 bd bb 70 cb 3d 7c 4d 8c be 25 08 25 3b
       -0.06050333 0.09933611 -0.27402866 0.0025181856
0001d0 bb 64 29 3e 76 28 f5 bb 03 56 17 3d 56 8c c6 bd
       0.16542332 -0.00748163 0.03694726 -0.09694736
0001e0 d7 00 75 bd ff 2a b3 3c a1 0c 04 be 45 a5 2d be
       -0.059815254 0.021871088 -0.12895443 -0.16957577
0001f0 3d 82 95 bc 5a 39 d4 3d af 54 89 3d d0 12 ab bd
       -0.018250579 0.103625014 0.06705605 -0.083531976
000200 6f f0 8f 3d 71 c5 5f be 9e 67 d1 3c 29 46 86 3d
       0.07028281 -0.21852662 0.025562104 0.06556351
000210 6a 50 5b 3d b7 7b fe bc 4d 3d 36 3e 4d 8f 08 3d
       0.053543486 -0.031064851 0.17796822 0.033339787
000220 93 ea 10 3e 0c f0 53 bc e9 27 58 3e d1 7b 16 be
       0.14151983 -0.01293565 0.21108975 -0.1469567
000230 40 ef c9 bd 81 5d 9c 3e 4f b8 2e bd d7 d4 b1 bd
       -0.098600864 0.30540088 -0.04265624 -0.08683174
000240 10 38 d4 bc 0b ca 13 bd 76 bb c2 be 23 21 a6 3b
       -0.025905639 -0.036081355 -0.38033646 0.005069868
000250 ac 6e 95 be d1 b4 01 bf 9d 05 d3 3c 06 c5 3b be
       -0.29185998 -0.5066653 0.025759513 -0.18336877
000260 e9 0c e7 be 12 f4 c6 3d ee 66 ab bd 20 b3 51 be
       -0.45127037 0.097145215 -0.08369242 -0.20478487
000270 5c ee 20 3c cc a0 e2 bc d0 d7 6f be ee 44 49 3e
       0.009822454 -0.027664565 -0.2342217 0.19655201
000280 79 48 03 3e 1d 47 df bd 45 ba 20 3e da 5a 79 3d
       0.12820615 -0.10902236 0.15696056 0.06087766
000290 b6 7e b4 3d 97 b1 ab bd fc 0c fc 3c 7a ed 0e 3d
       0.08813231 -0.08383482 0.03076791 0.034894444
0002a0 88 c6 ba bc cd 81 37 3d bc 9e de 3d 9f 53 1c be
       -0.022799745 0.044801522 0.1087012 -0.15266274
0002b0 51 81 73 bd ca 70 cc 3d d9 56 49 3d d6 e4 86 bd
       -0.059449498 0.0998245 0.04915509 -0.06586616
0002c0 a4 e4 de bd 9b b0 72 bd 30 d4 c7 3d 85 69 b2 bc
       -0.108834535 -0.059250455 0.097572684 -0.021778831
0002d0 1e b3 11 be 3d 3d f1 bd 62 b3 6b be 59 d6 89 bd
       -0.14228484 -0.117792584 -0.23017648 -0.06730337
0002e0 24 7d 80 bd 7f 19 d1 bd 36 b0 2e be dd 2d 70 be
       -0.06273869 -0.10209941 -0.17059407 -0.23454995
0002f0 64 a7 08 be c2 b8 b8 bd e4 0c ad be 49 93 de be
       -0.13345104 -0.09019615 -0.33798897 -0.43471745
000300 e4 14 9e 3d 47 6a c8 be b7 b5 fc be 4a fc ac 3d
       0.07718828 -0.39143583 -0.49357387 0.08446558
000310 29 9d 78 be a6 58 96 be cb 98 f2 3d 17 bd b3 bd
       -0.24278702 -0.29364508 0.11845549 -0.087763004
000320 66 a6 67 be c8 66 e1 3d 6b c2 4f be ce 0b dc be
       -0.2262207 0.11005932 -0.20289008 -0.42977756
000330 e2 64 86 3d 05 c9 f6 bd b8 1f 28 be 5b 19 a2 3e
       0.065622106 -0.1205006 -0.1641835 0.3165997
000340 2b 34 c7 3d 01 19 6f 3e 54 69 b1 3e 03 b6 74 3e
       0.09726747 0.23349382 0.3465067 0.23897557
000350 2e 00 cb 3d b3 37 86 3e 26 c2 99 3e 52 c2 52 3e
       0.09912144 0.2621437 0.30030936 0.2058194
000360 45 53 79 bd 06 b1 85 bd a3 65 28 be 49 f6 8a bc
       -0.060870428 -0.06527905 -0.16445021 -0.016963141
000370 08 5f 60 be 3b 71 5d be 81 be 9e bd 53 0c 88 be
       -0.21911252 -0.21625225 -0.077511795 -0.26571903
000380 02 b4 0a 3a 8d b7 4c be 1d 87 0a 3d 9b bb 24 bd
       0.00052911055 -0.19991894 0.03382026 -0.040217977
000390 15 fb bb bd 7e 33 20 be 43 69 0b be 5c f9 c6 bd
       -0.091787495 -0.15644643 -0.13614373 -0.0971553
0003a0 0a 99 69 be 63 22 de bc bc 90 12 3e 09 0c b1 bd
       -0.22812286 -0.027116006 0.14313024 -0.08644874
0003b0 a9 33 d0 3d cb 7c 6d bd a2 56 3b bd ab a1 70 bd
       0.101661034 -0.05798034 -0.045736916 -0.05874793
0003c0 15 0e 10 3e 12 b8 57 bd 14 65 b1 3d 46 d7 1f bd
       0.14067872 -0.052665778 0.08661857 -0.03902366
0003d0 92 d1 8d 3d 70 41 14 bd 01 1e 84 be 89 d4 be be
       0.06924738 -0.03619522 -0.2580414 -0.37271526
0003e0 c8 4c 47 be 19 d4 c0 be 6d 11 95 be 65 c6 ad be
       -0.19462883 -0.37661818 -0.29114857 -0.33940426
0003f0 1d 82 74 3e 13 f3 6b 3e 26 b9 07 3e c6 87 9d be
       0.2387776 0.23041944 0.13254222 -0.3076765

pre_layer.0.bias f4 [28]
000000 17 2a 01 3d 41 50 06 3e 3e 34 2b 3c 1c 6d 52 bc
       0.03153428 0.13116552 0.010449467 -0.0128433965
000010 ac ea e4 3d 1d 98 8d 3e e8 eb 23 3e 7b eb e0 bb
       0.111775726 0.27655116 0.1600796 -0.006864009
000020 71 97 8c 3d 6e 7e db 3d 4e 29 42 3d 98 0d d1 3d
       0.06864823 0.10717474 0.047402672 0.10207671
000030 05 02 99 3d c2 f5 04 3e 99 f2 29 bd 9c b4 8d 3d
       0.07471088 0.12984374 -0.041491125 0.06919214
000040 85 31 ec 3c d5 a3 d5 3d 2b 5f 07 be 59 6e f4 3d
       0.028832207 0.10431639 -0.13219897 0.1193511
000050 7b ec b9 bb c4 ca 12 3d 2e f5 f2 3d 71 47 a5 bb
       -0.0056739426 0.035837904 0.118631706 -0.005043917
000060 cb 1e af be 68 1f 5e 3c 50 0e 24 3d d3 02 36 3e
       -0.3420318 0.0135572925 0.040052712 0.17774515

pre_layer.3.weight f4 [48, 28, 3, 3]
000000 a0 ab d3 bd d3 a7 1e bf 5d fd a4 be 89 9b 92 3d
       -0.10335469 -0.6197483 -0.3222455 0.07158572
000010 5c b5 45 be b1 c6 f9 bb 9e 15 bc 3e df 93 79 3e
       -0.19307464 -0.007622563 0.36735243 0.24372815
000020 f6 d0 5f be de bc 36 3e 79 c1 68 bd 55 c4 7f be
       -0.21857056 0.17845485 -0.056825135 -0.24977238
000030 2c 0c 17 3e b4 7b d9 be 1e ea 78 bd 71 3a 02 3e
       0.14750737 -0.4247719 -0.060770147 0.12717606
000040 4d 62 db bd 9d e3 b4 3d 6d 60 a9 3d 8f dd c1 3e
       -0.10712109 0.08832476 0.08270345 0.37864348
000050 bf 57 25 3f 7b f6 cc 3d ec 8b a6 3d 60 76 8c 3e
       0.64587015 0.1000795 0.08132157 0.27434063
000060 34 04 23 3f 70 ee 8b 3e ab 10 a8 3d dd 3f 61 3e
       0.6367829 0.2733035 0.08206304 0.21997018
000070 8a 16 d0 bc 8a 0b 84 39 e8 a0 33 3e 1f 2a 52 3d
       -0.025401372 0.000251856 0.1754185 0.0513097
000080 7b 58 5b 3c 61 f1 99 bd 96 8c c2 be ed 49 bd bd
       0.013387795 -0.075167425 -0.37997884 -0.09242616
000090 42 c9 33 be 70 d2 1f be f1 4a 43 3d dd 73 02 3e
       -0.17557243 -0.1560762 0.04767889 0.12739511
0000a0 c6 97 a9 bd 65 0a de 3d df 3a 01 3f ca 35 a0 3e
       -0.082809016 0.10841826 0.50480455 0.31291038
0000b0 56 de 06 3c c1 54 95 3e 20 7b e1 bc ae 56 0e be
       0.00823172 0.29166225 -0.02752453 -0.13900253
0000c0 58 66 c2 3e cd 4f 22 bf e8 c0 f6 be 9b 17 a7 3e
       0.37968707 -0.63403016 -0.4819405 0.32635197
0000d0 ef d8 c0 be 46 1d a3 bd 98 93 5b 3e 7b dd 8c 3e
       -0.37665507 -0.07964568 0.21443021 0.27512726
0000e0 03 22 c3 3d e8 4f f1 3e cd c3 84 3e 07 b1 42 bd
       0.095279716 0.47131276 0.25930634 -0.047532108
0000f0 75 51 5c 3f df 01 05 3f 8e 86 63 3e 43 3e 81 be
       0.86061794 0.5195598 0.22219297 -0.25242814
000100 7b 4e ed bd 5a cb 19 be 0b 7d 80 bd 98 21 8d 3b
       -0.115872346 -0.15018979 -0.0627385 0.004306983
000110 e8 df 27 bd 02 d5 84 be bc 02 8e bd 5b 8e ed bd
       -0.040985018 -0.25943762 -0.06934115 -0.11599418
000120 a6 b6 69 bb cf 7e dd 3e 35 57 de 3d a9 bc 65 3e
       -0.0035661845 0.4326081 0.10856477 0.2243525
000130 cb 39 51 3d 63 3c 64 be b6 5a c0 3e dc 75 1c be
       0.051080506 -0.2228866 0.37569207 -0.15279335
000140 c9 ac 9c 3c 4d 59 12 3f 5e c7 16 3f 52 02 51 3f
       0.01912536 0.5716751 0.5889796 0.81644166
000150 1f be 39 3f 97 c1 87 3e 2a 60 bc 3d a4 39 e9 3e
       0.72555727 0.26514885 0.09198029 0.4555179
000160 2a f2 3c be d7 83 c3 bd a4 64 24 3d a0 8d e5 bd
       -0.18451753 -0.09546631 0.04013504 -0.112086535
000170 ec 1b 21 be 29 f9 38 3e b6 25 7e 3c e3 39 cb 3d
       -0.15733308 0.18063797 0.015511921 0.099231504
000180 a6 99 b4 3e 1e c6 8f 3c 59 db 4a bd 8a 80 89 3e
       0.35273474 0.017550524 -0.049525592 0.2685588
000190 81 52 54 3e 98 b2 2f bd b5 30 af 3e 04 d4 af 3e
       0.20734598 -0.04289493 0.34216848 0.34341443
0001a0 d9 3f 3b be 2a f3 54 3f 52 64 86 3e 8c e6 aa bd
       -0.18286075 0.8318354 0.26248413 -0.083447546
0001b0 e3 57 dc 3e 76 82 b4 be 5e 19 30 bf 97 e7 ae 3e
       0.43035802 -0.35255784 -0.6878871 0.34161064
0001c0 b2 97 4b be 33 ca 98 bc f8 28 a7 3e 41 ea 55 3d
       -0.19882086 -0.018651104 0.32648444 0.052225355
0001d0 22 b7 63 be 32 58 b1 3d b3 d2 de 3d 71 9f 9b bd
       -0.22237828 0.086594 0.108800314 -0.075987704
0001e0 9f 86 24 3f 6f fa 14 3d d2 26 a9 be 6b 90 37 3f
       0.64267915 0.036371645 -0.3303743 0.7170474
0001f0 e4 3a 80 bc 46 87 4a be 1e 22 16 3e 12 58 0a bf
       -0.015653081 -0.19778165 0.14661452 -0.54040635
000200 6e 53 b8 be 63 88 35 bd a3 e5 ac be 6a f4 2f 3c
       -0.36001152 -0.04431952 -0.3376895 0.010739425
000210 3f 09 37 3d 1f c6 47 be ba b1 59 be 0b 80 05 3f
       0.044686552 -0.19509171 -0.21259204 0.52148503
000220 62 db 28 3f b7 a6 0d 3f 4f 48 86 3f e5 cc 16 3f
       0.6595975 0.5533251 1.0490817 0.58906394
000230 ed 16 e4 3e 7d 62 3a 3f ca d2 5e 3e 87 a1 12 bd
       0.4454874 0.7280653 0.21760097 -0.035798576
000240 bb ba 0a 3d c6 f5 02 be dc 0d fd bd 39 f2 3f 3e
       0.033869486 -0.12789068 -0.12356159 0.18744744
000250 42 cf c0 3d 3c d6 95 bd a2 5e c9 bb 8f 2b d9 bd
       0.09414531 -0.073162526 -0.0061453143 -0.10604011
000260 c1 08 ee 3b 4b eb 2d 3e 31 b5 11 3e 14 d3 e1 3e
       0.007264227 0.16984288 0.14229275 0.44106352
000270 6e 5c 6d 3e 17 9f 86 3d ba b6 c1 3d f0 58 6d 3e
       0.2317979 0.06573313 0.094586805 0.23178458
000280 d4 2e 66 be af 11 27 be b3 cb d6 3e 89 de 43 3d
       -0.22478801 -0.1631534 0.41952285 0.047819648
000290 fe 8c 2e bd 2a 91 e3 bc 25 3a 86 3d 4d c4 90 bf
       -0.04261493 -0.02777918 0.06554059 -1.1309906
0002a0 ad 00 61 bd 6c 9e 83 be 8e f5 5c bf 0c 26 31 bd
       -0.054932285 -0.25706804 -0.86312187 -0.043249175
0002b0 6d 7c 50 be b1 fe a9 be 3b cf 2f 3f 92 8b aa 3e
       -0.20359965 -0.33202127 0.68675584 0.3330961
0002c0 4e d5 d4 3e 82 e4 50 3f 0b fa bd 3e e0 31 85 3c
       0.4156899 0.81598675 0.3710483 0.016259134
0002d0 d2 1f 09 3e 63 ab 3d 3f 3d 54 71 3f 3a 2a 7b be
       0.13391045 0.7408964 0.9426916 -0.24527827
0002e0 86 53 76 3e dc 9c 70 3e 55 3c 06 3e db 55 4a 3e
       0.24055299 0.23497337 0.13108952 0.19759314
0002f0 06 56 4a 3e fc 41 8b 3e b6 99 34 3c 9f 16 14 3f
       0.19759378 0.2719878 0.011022976 0.5784702
000300 88 bb 8f 3d 5f 8c c1 be 45 73 dd 3d 72 74 ac bd
       0.070181906 -0.37802407 0.108130015 -0.08420648
000310 b7 7a 4a be 8b 91 d5 3c ed 9d 06 3e ae 34 af 3e
       -0.19773374 0.026070377 0.13146181 0.3421988
000320 8e 39 69 3e e7 6f f1 3d f6 92 41 3d 72 29 42 be
       0.22775862 0.11788922 0.047259293 -0.18961123
000330 f6 31 01 3f 17 47 81 3d d4 28 30 3b 7d 51 7a 3e
       0.5046686 0.063123874 0.0026879804 0.24445148
000340 ea f1 d3 be 53 13 94 be d7 df 1a 3d d5 02 1e bc
       -0.41395503 -0.28920993 0.037811127 -0.00964423
000350 23 25 b5 3d ec 90 11 be 41 e0 45 bd 80 a7 55 bd
       0.08844974 -0.1421544 -0.04830957 -0.052161694
000360 41 7f db bd b7 39 ef be 63 56 57 be 9f 0e 03 be
       -0.10717631 -0.4672372 -0.21029048 -0.12798546
000370 db f4 32 bd fa 97 0e bd fc 93 0c be 2d 18 0c be
       -0.043690544 -0.034812905 -0.13728327 -0.13681097
000380 e9 72 8a be ba f0 1a 3c b5 b0 be 3b 6c 43 05 3e
       -0.27040794 0.009456808 0.005819405 0.13014
000390 1a 2b 8e 3e f2 30 7d 3d 29 1e 20 bd 91 05 d0 3d
       0.2776726 0.061814256 -0.039091263 0.10157312
0003a0 74 4c 37 be b8 f3 87 3c 2c 8f 38 3e 29 9b 34 3e
       -0.17900258 0.016595706 0.18023366 0.17637314
0003b0 b8 68 c1 bd de 77 b8 bc 22 c8 a5 3d e2 a4 8b 3d
       -0.09443802 -0.022518095 0.08094813 0.06818558
0003c0 58 21 02 3e 4e 0a 56 be 19 76 5e be 86 95 b7 3d
       0.12708032 -0.20902368 -0.21724738 0.08964066
0003d0 45 b3 42 be e0 40 02 be 44 de 99 3e ae 6c 97 3e
       -0.19013698 -0.1272006 0.30052388 0.29575104
0003e0 08 c1 82 3e 38 68 d0 3e 4f c4 15 3e 24 7f d2 3d
       0.25537896 0.40704513 0.14625667 0.102781564
0003f0 33 d4 82 be 7e 73 b1 bd d5 37 08 3e 70 ee 78 bd
       -0.2555252 -0.086646065 0.13302548 -0.060774267

pre_layer.3.bias f4 [48]
000000 8c be 70 be c9 e2 a5 3e 69 40 11 bd af 5c 87 bc
       -0.23510188 0.32399586 -0.035461817 -0.016523687
000010 ad cb 98 3e 26 25 0e 3c 9a 30 11 3c 95 e3 59 3e
       0.29842892 0.008675849 0.008861685 0.21278222
000020 3e 0d 51 3d 34 12 cd bd ca 5b 03 3c b0 ed a7 3d
       0.05103802 -0.100132376 0.00801749 0.08199632
000030 a9 c6 59 bd c5 f1 9a 3e 36 f4 89 bb 22 0b e8 bd
       -0.053167973 0.3026258 -0.0042100204 -0.113302484
000040 2f 18 9b 3c a0 aa 5c 3e 99 54 3e 3d 0c ff c6 3c
       0.01893243 0.21549463 0.046467397 0.024291538
000050 60 02 3f 3d f2 2e 97 3d 82 40 12 bd e3 af 36 3c
       0.046633124 0.07382001 -0.03570605 0.011150333
000060 40 59 9f bd 93 2c a0 3d 15 40 5a 3d 47 ba 8e 3d
       -0.07780695 0.07821002 0.05328377 0.06969123
000070 51 62 66 3e 73 1a 87 3d b2 5a 5d 3d 3c 95 f1 3c
       0.22498442 0.06596842 0.054041572 0.029490106
000080 01 94 5b bd 54 15 c4 bd 32 5b ba 3d 78 e4 14 3e
       -0.053607944 -0.095743805 0.090994254 0.14540279
000090 51 a5 fe 3d 67 7b 78 3e 73 dd 39 3e 89 43 c3 bc
       0.12433875 0.24265824 0.18150882 -0.023835914
0000a0 6b ee a1 be 25 51 e6 3d da ed 2d 3e 46 8c 16 3c
       -0.3162721 0.11245946 0.16985264 0.009188717
0000b0 98 ee 66 3e 8a a3 a7 bc 1f 77 59 3d 7e 6a b4 bd
       0.22551954 -0.020463724 0.05309212 -0.08809374

pre_layer.6.weight f4 [64, 48, 2, 2]
000000 8b 00 7c 3d 7a 2f 6c 3e 0e 49 01 3d ce c4 c8 bd
       0.061523955 0.23064986 0.03156381 -0.098031625
000010 77 1f b4 3d f2 d0 3f 3e 79 e9 49 bc e1 98 c6 bd
       0.08795064 0.1873205 -0.012323731 -0.09697128
000020 06 25 9a bb b1 8e 6a bd 21 18 85 be d6 c8 73 be
       -0.0047041206 -0.057264987 -0.2599497 -0.23807082
000030 eb 67 06 be d0 36 88 bc c6 d9 58 3d 12 89 29 bd
       -0.13125579 -0.0166277 0.05294206 -0.041390486
000040 c9 53 66 be a3 55 9f be 24 bc 42 3d ec 18 7a 3b
       -0.22492899 -0.31120023 0.047542706 0.0038161827
000050 1d 3f a2 3e 62 75 09 3e aa 2b c8 bd b6 95 43 bc
       0.31688777 0.13423684 -0.09773953 -0.011937549
000060 80 ae 0e 3d fa 4f 99 bc d1 bc ff 3c 3a e8 08 bc
       0.034834385 -0.018714894 0.031217964 -0.008356148
000070 7d 51 9b bd 2b a3 93 bc fd 4f ee bd 13 7d 6f bd
       -0.07583902 -0.01802214 -0.1163635 -0.05846889
000080 14 77 df bd 07 cb b8 bd cc 9d d1 bd 45 2e e2 bc
       -0.10911384 -0.090230994 -0.102351755 -0.027609954
000090 7d 55 dc 3c 60 8f ae bd 44 49 18 bd d4 9b f2 3b
       0.026896233 -0.0852344 -0.037179247 0.00740383
0000a0 2f f0 33 be e4 78 53 3e 8d 36 78 be 75 69 1d 3e
       -0.17572092 0.20651585 -0.2423956 0.1537226
0000b0 00 06 94 bd f1 2e 62 3e 18 57 8b bc 8d a5 60 3d
       -0.07227707 0.22088219 -0.017009303 0.05484538
0000c0 9e c9 c6 3d 9a 90 04 be 56 4e cc bd 95 fa e7 bd
       0.09706424 -0.12945786 -0.09975879 -0.113270916
0000d0 9c a5 1a 3f db d1 c1 3e 78 d8 3a bd da 87 40 be
       0.6040895 0.3785542 -0.045616597 -0.18801823
0000e0 34 50 ed 3e 89 c9 03 3f ab 75 21 be 45 08 fa bd
       0.46350253 0.51479393 -0.15767543 -0.122086085
0000f0 8e ab 22 3e 0e 4f 74 3e 73 32 ae bc 17 55 95 be
       0.15885755 0.23858282 -0.02126429 -0.2916648
000100 e4 5a 40 be 34 9c 84 3d 8c b7 1d bd 22 16 e1 3d
       -0.18784672 0.06475106 -0.038505122 0.109905496
000110 73 9a 88 bc d2 2e aa be d7 ef d2 bd e1 3f f6 3c
       -0.01667521 -0.33238846 -0.10299652 0.030059757
000120 d0 25 c6 bd 6e 91 a8 be 69 ad a2 be a5 16 0f bf
       -0.09675181 -0.32923454 -0.31772926 -0.5589393
000130 36 34 52 be 05 a0 9d bd 9b 68 a0 bd 0e 8c 14 3c
       -0.2052773 -0.07696537 -0.07832452 0.009066595
000140 9a e6 1c be 16 b5 97 bd c6 0d e3 bd 2c a0 95 bd
       -0.15322343 -0.07407586 -0.110866114 -0.07305941
000150 51 6e 84 be e6 75 fe bd 63 e0 98 be 92 0d 6e be
       -0.25865415 -0.12424831 -0.29858693 -0.23247364
000160 a5 b5 0f be ea 58 4c be f2 c5 23 be ab 91 43 be
       -0.14034136 -0.19955793 -0.15993479 -0.19098537
000170 42 8f 78 bd 1d 19 0a be 72 cd 9c bc 9a 07 02 3d
       -0.060683496 -0.13486142 -0.019140933 0.03174553
000180 be 5d d8 bd 73 ee dc bd ba 26 f8 bc 0f bb 6a 3c
       -0.10564755 -0.10787668 -0.030291904 0.014326825
000190 0e 7c f5 3d ce 8f 1e bd 4e ef 87 3d 69 4d b7 3d
       0.11986552 -0.03871136 0.066374406 0.08950312
0001a0 0a 72 16 bb b2 3f 1b 3e ed ba 1f 3e fd da ca 3d
       -0.0022956156 0.15161017 0.1559865 0.0990505
0001b0 3d c8 48 3d de a3 49 bd 69 ab 20 3e 22 15 35 3d
       0.049019087 -0.04922854 0.15690388 0.044209607
0001c0 81 8b 0c 3e 65 6e 01 3f 83 d0 c8 bc ad f2 f0 bd
       0.13725092 0.50559074 -0.024513489 -0.11765037
0001d0 ef 66 ae 3d 35 84 3c be 5e b8 0f 3d 6a 5d 70 be
       0.08515727 -0.18409808 0.035087936 -0.23473135
0001e0 80 5e 06 3d 03 35 d8 bd f4 e0 ec bd c9 c6 b1 bd
       0.032804966 -0.10556986 -0.11566344 -0.086804934
0001f0 98 1c 2a be c6 bb 82 be a1 3f 29 bd d9 3b 06 be
       -0.1661247 -0.25533885 -0.041320447 -0.13108768
000200 46 44 8f be 0f c8 42 be fa 0d 10 bd c9 02 38 3e
       -0.27981776 -0.19021629 -0.03516958 0.17969812
000210 76 64 ec 3c 40 42 e2 3e f1 14 b3 3d 48 ca e2 3e
       0.028856497 0.4419117 0.08744229 0.44294953
000220 a2 06 e3 3e 74 95 25 3f f9 7b ea 3d 4a 00 8e be
       0.44340998 0.6468117 0.11449427 -0.27734596
000230 3e 11 a4 3d a7 20 05 3d 5c 08 7c bd b3 8d 77 3c
       0.08011101 0.032501843 -0.06153141 0.015109467
000240 ef ff cc bd 76 0f fe 3d a5 9d bd bd 46 2b 40 bd
       -0.10009753 0.12405293 -0.09258584 -0.04691627
000250 72 49 b1 bd 5a ba 3c 3e a5 e1 9c bd 6a 43 09 3e
       -0.08656587 0.18430462 -0.07660226 0.13404623
000260 75 a6 8b 3c d9 ae bb bd 8b 4b 15 be f0 ca 42 bc
       0.017047146 -0.09164209 -0.14579599 -0.011889204
000270 72 be 76 3d 3c fc 5c 3c 2b 9f da bd 4b b9 e1 bd
       0.060240217 0.013487872 -0.1067489 -0.1102167
000280 1c bc 01 bf f7 46 cb be ac 4f 95 be b7 26 20 3e
       -0.5067766 -0.3970258 -0.29162347 0.15639769
000290 a5 ef f8 bd f4 73 ed 3e 78 bd 39 be 5b 12 1f be
       -0.121550836 0.46377528 -0.18138683 -0.15534346
0002a0 80 91 0f bd 8b 2a 9f bd e8 9c 94 39 4e 73 5f bd
       -0.03505087 -0.07771786 0.00028345664 -0.054553322
0002b0 8d 58 81 be a5 70 8f be a3 67 a8 bd 3a ad 84 be
       -0.2526287 -0.28015628 -0.08222892 -0.2591341
0002c0 1b 09 5b be 98 74 28 be dd cc 9f bd 5f b0 3c 3e
       -0.21390192 -0.16450727 -0.078027464 0.18426655
0002d0 14 6d d6 3d 93 b0 cd 3c 95 b8 ce be 19 c2 66 bd
       0.10470024 0.025108611 -0.403752 -0.05633745
0002e0 82 52 c1 bd 0d 88 9c 3c 4c 99 0e bd 2d b9 79 3d
       -0.09439565 0.019107843 -0.034814164 0.060967613
0002f0 cf 07 39 3e be 70 99 3e 0e 32 37 be a3 bc 6d be
       0.18069385 0.29968828 -0.17890188 -0.2321649
000300 e8 b3 6c 3e ae bd 82 3c 9e 6c b0 3e 30 68 ad 3d
       0.23115504 0.015959587 0.34457868 0.08467138
000310 c9 bb 45 bd 64 01 38 3d a8 dd 0e be 61 54 8c 3d
       -0.04827479 0.0449232 -0.13951743 0.068520315
000320 0f ca 84 bd ab b2 cd bd 21 3d 27 bd b2 ec a0 3d
       -0.06483852 -0.10043844 -0.04082978 0.07857646
000330 b7 37 06 3d fc fa 09 be e5 d2 d3 3d fb 21 17 3e
       0.032767978 -0.13474649 0.10342959 0.14759056
000340 4c 08 d4 3d 0d d9 84 3e 98 7e aa be 94 49 2b be
       0.10353145 0.25946847 -0.33299708 -0.16727287
000350 9a 27 8e 3e 81 7d 73 3c 1e de 1c be bc 8a 54 3d
       0.2776459 0.014861465 -0.15319106 0.05189012
000360 65 b2 55 3d 31 1f 00 3d 99 a3 af bd d6 3a 1e bd
       0.052172083 0.031279746 -0.08576126 -0.03863033
000370 1f b2 e5 bd 9a ba 10 be c1 51 3c 3d d8 7a 56 3d
       -0.112156145 -0.14133683 0.045976404 0.052363247
000380 64 d5 51 3d 06 7c c8 bd 13 af 15 3d f6 56 f2 3c
       0.051228896 -0.097892806 0.036543917 0.029582482
000390 ad 95 02 3e 7c 25 11 3e f8 23 13 3e 90 52 15 bd
       0.1275241 0.14174455 0.1436919 -0.03645569
0003a0 1c d9 f3 bc 79 31 35 3d 36 3a 30 3d 87 1e 6c 3e
       -0.029766612 0.044236634 0.043024264 0.2305852
0003b0 02 69 8f 3d c9 de 25 be 8f 3c 08 be 2e e7 fa 3c
       0.070024505 -0.16198267 -0.13304351 0.030627813
0003c0 5a 51 6b bc c8 e4 54 3d cb 96 92 bb d4 d1 5a 3d
       -0.014362657 0.051975995 -0.0044735423 0.053422764
0003d0 4c 67 ef 3d 32 f9 5a 3c bc 9d cb be b2 42 bf 3c
       0.11689624 0.013365077 -0.3976878 0.023347232
0003e0 3a 5d 2e be 02 d6 4b 3e 98 f8 b5 3d ef e9 b8 3e
       -0.1702775 0.19905856 0.08885306 0.36115977
0003f0 8f e5 67 3d 12 a2 87 bd 11 95 cf 3d 47 61 24 3e
       0.05661541 -0.06622709 0.10135854 0.16052733

pre_layer.6.bias f4 [64]
000000 ea 14 df bc 09 6a 5e bd 5a 95 8d 3b 8b 73 b0 3d
       -0.027231652 -0.05430034 0.0043207826 0.08615788
000010 e6 7d 0e bb ab bf 92 bd c1 32 f1 bd f8 b5 11 bc
       -0.0021742522 -0.07165464 -0.11777259 -0.008893482
000020 53 2d bf 3d 51 96 16 bd 62 2b 11 bd 13 b9 4e ba
       0.09334817 -0.036764447 -0.035441764 -0.00078858546
000030 55 d1 a0 3d a6 e7 bd bb 02 ff ad 3d eb 16 7b bd
       0.07852427 -0.005795437 0.084959045 -0.061301153
000040 ed 7a af 3c c2 04 21 3e 93 e1 8d bd b6 08 10 be
       0.02142092 0.15724471 -0.069277905 -0.14065823
000050 8c 25 9f bc 09 11 1c 3d b4 3c 53 3e bf d4 18 3d
       -0.019427083 0.038102183 0.20628625 0.037312265
000060 d6 d2 84 3e 27 cb 53 3e 06 61 99 3d 75 a8 ca bc
       0.25942105 0.20682965 0.07489209 -0.02473853
000070 cb 99 65 be 5c 5b 9f 3d b0 cf 14 3d ee 39 15 3e
       -0.22421949 0.07781097 0.03633088 0.1457288
000080 0d 91 21 bd 88 05 83 bd a2 74 9d 3d bf b4 70 bd
       -0.03944497 -0.063975394 0.076882616 -0.058766123
000090 37 d3 0a 3d dd 39 0e bd 80 ce e4 3b 43 98 ce 3d
       0.033892836 -0.03472315 0.0069826245 0.10087635
0000a0 73 93 3e be 27 d7 8d 3d c2 aa 65 bd 45 0d 30 bc
       -0.18610935 0.06925803 -0.05607105 -0.010745351
0000b0 d9 8a 8c 3d 3d 1e e6 bc 9d a6 10 be 7b 35 5d 3c
       0.068624206 -0.02809059 -0.14126058 0.01350152
0000c0 4a 02 80 bd 9f a7 37 3e 6c e7 78 bc 80 04 a9 bd
       -0.062504366 0.17935036 -0.015191894 -0.082528114
0000d0 f3 c6 83 bd 0f 69 88 3b 72 c2 15 bd 4e e1 cc 3d
       -0.06434431 0.0041629146 -0.03656239 0.10003911
0000e0 90 80 88 bc 3d 22 17 3d 7f c3 9a bd d3 ad 4a bc
       -0.016662866 0.036897887 -0.07556819 -0.0123705445
0000f0 09 c1 58 3e 3f a9 95 3e 7e 17 1d 3e f0 e5 a3 bc
       0.21167387 0.29230687 0.15340993 -0.020007104

conv4.weight f4 [128, 256]
000000 e9 c2 d3 3d de 65 e2 bd f3 30 23 3d 97 61 21 be
       0.103399105 -0.11054586 0.039841603 -0.15759884
000010 2b 42 0b be 71 ed 9a bd 44 0b 80 bc 02 69 e6 bc
       -0.1359946 -0.075648196 -0.015630372 -0.028126244
000020 ee 38 46 bd a3 00 e0 3d 5f 3e d9 bc 74 be ee bd
       -0.048394136 0.109376214 -0.026518999 -0.1165742
000030 7e 6b 35 bd 22 b9 45 3d 3b 7a e3 bd e4 58 0e be
       -0.044291966 0.04827226 -0.11107298 -0.13901097
000040 08 9b ab bc 90 4f 24 3e f2 e9 bf 3d 73 a4 8f bd
       -0.020947948 0.16045976 0.093707934 -0.07013788
000050 c1 8e 5a 3e 20 fc 4a 3d 6f 72 8a bc 3e 22 c4 bc
       0.21343519 0.04955685 -0.01690027 -0.02394211
000060 ee 71 d4 bd b0 e1 c3 3d 0c a5 05 be 68 44 d9 3d
       -0.10373293 0.09564531 -0.13051242 0.106087506
000070 de 64 5d be 12 5d 3a be 00 60 10 be 68 9d 7f be
       -0.21620509 -0.18199566 -0.14099121 -0.2496239
000080 74 c6 9a 3d 72 2c 86 bc 5a 21 2e be 0a fa 09 be
       0.07557383 -0.016378615 -0.1700491 -0.13474289
000090 30 7f 45 3d 81 d4 5e bd aa dd b4 bc dd 01 06 3e
       0.048217 -0.05440188 -0.022078354 0.13086648
0000a0 cd d3 b6 bd b3 c0 f5 3d 02 ed b0 bc 58 3f e2 bc
       -0.089271165 0.11999645 -0.02159739 -0.027618095
0000b0 e3 a2 51 bd c5 2b 0d 3e 4c ba a4 bd 87 5b df 3c
       -0.05118073 0.13786228 -0.08043346 0.027265323
0000c0 bf da 5e 3d 45 cc b1 bd 7a b6 d7 3d 5d 7d a9 bd
       0.05440783 -0.086815394 0.105328515 -0.08275864
0000d0 57 a4 a1 bd b1 01 b6 bd 95 6e 18 be 7d af 27 bc
       -0.078926735 -0.08887041 -0.14885934 -0.010234711
0000e0 cc 2c c2 ba 6d 27 c1 3d 2a 33 44 bd 27 ca 42 3c
       -0.0014814376 0.09431348 -0.047900356 0.011889017
0000f0 3c 95 ea 3d 21 d2 ed bd 9d 2c 66 3d ad 0e ce bd
       0.114542454 -0.116123445 0.05619489 -0.10061393
000100 1f 86 f3 3c ef 34 11 3e 76 44 55 3c 51 95 40 bd
       0.02972704 0.14180349 0.013016811 -0.0470174
000110 aa 89 d8 3d 40 49 19 3e 90 6a 19 bd 46 60 17 bd
       0.10573132 0.14969349 -0.03745514 -0.036957048
000120 f0 91 df 3d 08 fd 8d 3d 8d 8f e1 3d db 2a 53 3d
       0.10916507 0.069330275 0.11013708 0.051554542
000130 5d ca 11 be ee 28 ff bd 57 67 12 bd 66 73 2b be
       -0.14237352 -0.124589786 -0.035743084 -0.1674324
000140 90 d3 e3 3d 69 f5 da bc 3a b5 86 3d 24 78 9b 3d
       0.11124337 -0.026728349 0.06577535 0.075912744
000150 2e da f8 3c e7 9e d2 3c 05 31 d6 bd 2d 63 3b be
       0.030377474 0.025710536 -0.104585685 -0.18299551
000160 bd af 05 be dd 79 19 bc 9c 09 7b bd 2a 28 95 bd
       -0.1305532 -0.009367433 -0.06128846 -0.07283051
000170 72 bf cd 3d be 4b 2f 3d a4 9e b5 3c c9 1b cc bd
       0.10046281 0.042796843 0.022170372 -0.09966237
000180 39 36 84 3d d5 8b b2 3d dd 94 27 3e fe 73 68 3d
       0.06455655 0.08718077 0.1636538 0.056751244
000190 15 42 e7 3d 85 18 33 bc 31 30 fd bd 73 b7 3a be
       0.11291901 -0.010931139 -0.123627074 -0.18234043
0001a0 b8 a8 98 3d 2c 16 83 3c 48 b9 91 3d cf 7e 1a bd
       0.074540555 0.016001783 0.07115418 -0.03771859
0001b0 9a a1 00 bd d6 24 a5 bd e4 aa 46 bb 3b 40 6d 3d
       -0.031404115 -0.080636665 -0.003031426 0.057922583
0001c0 6e 6e 2d 3d f9 68 53 3c 67 7e 9d 3d a8 e4 7c 3d
       0.042341642 0.012903445 0.07690125 0.0617415
0001d0 33 49 14 3c ed 93 2f bd 01 a2 b3 3d 65 39 ce bd
       0.009050655 -0.042865682 0.08771134 -0.10069541
0001e0 33 44 24 39 e1 00 f0 3d 33 61 13 3d fb cd 57 3d
       0.00015665665 0.11718918 0.03598137 0.052686673
0001f0 f1 e5 20 bd c7 c6 16 bc f5 c4 8e 3d 31 ef dc 3d
       -0.03928179 -0.009202666 0.0697116 0.1078781
000200 19 d4 1a 3e fd 25 12 3e e9 f2 f5 3d 91 0b 5c 3c
       0.15119971 0.14272304 0.12009222 0.013430492
000210 57 03 bd 3d 5a b0 66 3c be 7d 51 3d 0e b1 34 3e
       0.09229153 0.014080131 0.051145308 0.17645666
000220 d7 a0 18 3d b0 17 ca bd 9d 93 c6 bd 09 96 fa bd
       0.037262764 -0.09867799 -0.09696124 -0.12235648
000230 d0 09 1e be 2f 59 80 be 79 84 15 be 09 48 c5 bd
       -0.1543343 -0.25068042 -0.14601316 -0.0963288
000240 d2 4d 69 bd f8 61 9d bc 8a 45 b0 bd 28 53 bd 3d
       -0.05695898 -0.019211754 -0.086070135 0.092443764
000250 02 9b f5 bb 2e 52 6d bc cf 9b 98 3d ac a5 7c bc
       -0.007495285 -0.014484925 0.07451593 -0.015420359
000260 73 f4 ac 3d 0a 2e 00 3e fe ef 42 3c 72 2b 1a 3d
       0.084450625 0.12517563 0.011898039 0.03763909
000270 3a 14 68 3d f1 39 33 bb 89 f6 05 3b dc bc 30 bd
       0.056659915 -0.0027347768 0.0020441136 -0.04314886
000280 e0 13 19 be 7e 9c 57 3d 0e 36 33 3d 7d 1c cb 3d
       -0.14948988 0.052639477 0.043752722 0.09917543
000290 ac 84 13 3e f7 8f c2 bc 5b d3 ba bd 31 65 23 3c
       0.14406079 -0.023750288 -0.09122344 0.009972856
0002a0 90 5c 7a 3d 95 23 00 3e 46 14 e0 bb 05 15 46 3d
       0.06112343 0.12513573 -0.0068383543 0.04835989
0002b0 bb f5 d0 3d 34 be 27 3e c5 0e db bd e1 2d f1 bd
       0.10203119 0.1638115 -0.106961764 -0.11776329
0002c0 90 c8 ba bd 89 a2 df bb a9 0b 71 3d ee a8 4f 3d
       -0.091202855 -0.0068247956 0.05884901 0.050698213
0002d0 05 31 75 bd 9d 87 fb bd e3 9a 0b 3e 79 16 a2 3c
       -0.0598612 -0.122817256 0.13633303 0.019786106
0002e0 3e 3e 19 bd ac 18 72 3d 92 b8 01 3d 4a cf d5 bc
       -0.037412874 0.05910556 0.03167016 -0.02609982
0002f0 4f 1b 76 bd 69 89 2f be d8 5c 83 3c 1a 9d 83 bd
       -0.060084637 -0.17142262 0.016035482 -0.06426449
000300 28 9b f1 3d 0c d3 eb bc d4 e2 0d be 45 a0 a3 bd
       0.11797172 -0.028787158 -0.1385606 -0.07989553
000310 d3 0c 4c be 0d 8f 0e be 84 4c cb 3c 72 12 db bd
       -0.19926767 -0.13921757 0.024816759 -0.106968775
000320 c9 b4 0e be 63 02 7e 3d 25 57 c4 3d 98 80 17 be
       -0.13936152 0.062013995 0.09586934 -0.14795148
000330 8b 41 93 bd cb 4d 41 3d 28 d8 13 be 55 28 a0 bd
       -0.07190236 0.04719333 -0.14437926 -0.07820193
000340 53 b5 d8 bd 57 da ef bc 1e 39 2c be 13 88 97 3c
       -0.1058146 -0.029278917 -0.16818663 0.018497502
000350 29 1f 04 3e 1d ad 14 bc f7 76 d2 3b c2 98 ac 3d
       0.12902512 -0.009074477 0.006422873 0.08427574
000360 89 bb 21 be fa 93 c4 bc f3 2b 15 be e6 1c af bd
       -0.15794195 -0.023996342 -0.14567547 -0.08550434
000370 27 67 3e 3e f5 18 e0 3d 6f d6 71 bd 40 01 4f bd
       0.18594037 0.1094226 -0.05904239 -0.0505383
000380 8b cc 9b 3e 0a 2c c2 3d a2 60 ea 3d 13 21 41 3e
       0.3042949 0.09481056 0.114442125 0.18860273
000390 87 14 87 bc b9 23 a1 bd a0 f6 91 3d f1 3d 6f bd
       -0.01648928 -0.07868142 0.07127118 -0.05840868
0003a0 36 80 6a bd da c4 48 bd e3 33 4d bd d1 57 b8 3d
       -0.057251178 -0.049015857 -0.05009831 0.09001125
0003b0 9a 55 be 3b 99 cd 12 be f7 b2 80 3d e4 82 8f 3b
       0.0058085443 -0.14336242 0.06284135 0.004379617
0003c0 3b 60 93 bd 88 d6 fe 3d 43 b4 90 bd 1e 24 c9 bd
       -0.07196089 0.12443262 -0.07065632 -0.09821342
0003d0 f6 bd 4b 3e 79 ab b6 3d e8 a9 57 3d e2 31 70 3d
       0.19896683 0.089194246 0.05265227 0.058641322
0003e0 05 82 aa 3c cc bc 9c bd 13 3c 62 bd 2b cc 01 3e
       0.020813951 -0.07653198 -0.055233072 0.1267554
0003f0 f1 57 19 bd bc a9 dc bd a0 e2 55 3d 6b f1 31 bd
       -0.037437383 -0.10774562 0.05221808 -0.043443125

conv4.bias f4 [128]
000000 6b b4 be bc 05 82 15 bd 45 b7 9c 3d 89 7e ab 3d
       -0.02327939 -0.03650095 0.076521434 0.08373744
000010 32 56 25 3c 53 2a f0 3d e7 e4 03 3d c1 9f cc 3d
       0.010091351 0.11726823 0.03220072 0.09991408
000020 ea 63 69 3d dc 7f bc 3c e1 73 1d 3c cb 8b ac 3b
       0.05698005 0.023010187 0.009610147 0.005265688
000030 f2 c5 d4 bd fd 35 b0 bd b6 3b 1c 3c 5b 73 c8 3b
       -0.103893176 -0.086040474 0.009535721 0.006117267
000040 c9 3f 90 3d 0c d5 08 bd 11 ab ab bc 19 9d 81 bd
       0.07043416 -0.033406302 -0.020955594 -0.06328792
000050 c5 2b 2b 3e 71 b1 4e bc 46 e8 88 3b fd aa 30 3d
       0.16715916 -0.0126155475 0.00417808 0.043131817
000060 cf c3 f3 bd 6d be f7 bc f6 31 99 3d 15 39 af 3d
       -0.11902582 -0.03024217 0.074802324 0.085558094
000070 af 46 61 3d 7c 21 87 3e 88 7f e6 3d 52 67 94 3d
       0.05499905 0.26392734 0.112547934 0.07246269
000080 f3 3a b5 bd c4 98 be bd a9 60 74 3b d8 9a d5 bd
       -0.08849134 -0.093064815 0.003728906 -0.10429925
000090 9f 98 c4 3d a1 63 c4 3d df 17 e4 ba 70 23 2b bc
       0.09599423 0.09589315 -0.0017402134 -0.010445461
0000a0 03 99 04 3e 0b d7 4e 3e 37 f1 94 3c 28 d3 44 3c
       0.12948994 0.2019922 0.018181426 0.012013234
0000b0 a5 51 9c 3e 5a b4 0e 3e c7 39 45 bd 9c 7b 93 bd
       0.3053104 0.13935986 -0.048150804 -0.07201311
0000c0 8f ec fe bc b7 0a 86 3b 23 b6 5b 3d 26 c1 8b bd
       -0.03111866 0.004090633 0.053640496 -0.068239495
0000d0 ad 1a 35 3d 26 77 92 3e 31 da d6 bc 18 79 fc 39
       0.044214893 0.28606528 -0.026227089 0.00048155407
0000e0 52 17 03 bd e6 c3 8b 3e 6b 07 4c 3c 08 ae ed bd
       -0.03200466 0.27297896 0.01245294 -0.116054595
0000f0 88 20 84 3d f3 7c 89 bc 79 bc 5f 3e d0 1a bf 3d
       0.06451517 -0.016783213 0.2184924 0.09331286
000100 98 3a 48 3e 74 b6 29 3e 9f 81 25 bd cf ae 38 bd
       0.19553602 0.16573507 -0.04040682 -0.045088585
000110 78 b9 5a 3d 8e 72 11 be c1 fc 24 3e 81 0d 88 3d
       0.053399533 -0.14203855 0.16112043 0.06643201
000120 90 e5 cb 3c 35 30 4e 3d 1e 93 37 3e 0b 4f eb 3d
       0.024889737 0.050338943 0.17927215 0.114896856
000130 0e 57 65 3d dc 5d af 3d 37 81 9e bd 1b 14 a5 3d
       0.055991225 0.08562824 -0.077394895 0.080604754
000140 a9 96 c1 3d 53 25 99 bd 84 52 cd bd 26 22 0c 3d
       0.09452564 -0.07477822 -0.10025504 0.034212254
000150 86 63 88 3d 96 04 4b 3d e6 49 59 3d 6f d9 f3 3d
       0.066596076 0.04956492 0.05304899 0.119067065
000160 c9 a0 ed 3d de c8 81 bd 57 96 4a bd c7 30 0c 3e
       0.11602933 -0.063371405 -0.04945978 0.13690482
000170 ba 97 54 3e 5e ec bd bd 9b cc b6 3d 2b 78 d3 bd
       0.20761004 -0.09273599 0.08925744 -0.103256546
000180 b2 12 8d bc 1d 13 23 be d3 a3 4b 3c 02 ed 11 3d
       -0.017220829 -0.1592526 0.012429195 0.03562642
000190 83 30 42 3d 72 f2 9d bd 03 0a e2 bc fd 4b a1 3d
       0.047409546 -0.077122584 -0.027592665 0.07875822
0001a0 64 31 ca 3b db 64 af bc 76 e8 29 bb ec aa e5 bd
       0.0061704386 -0.021410396 -0.002592591 -0.112142414
0001b0 98 3b 6a 3d 1e e0 66 3d 22 56 ee 3b 10 2e d8 3b
       0.05718574 0.05636608 0.0072734514 0.006597288
0001c0 1b b3 14 bd 3d 02 1e 3d 8b 5b db ba 4d d0 1c bd
       -0.03630362 0.038576353 -0.0016735656 -0.03828459
0001d0 86 af 11 bc c7 1f c0 3b 04 b9 c6 bd ef 55 72 3e
       -0.008891946 0.005863163 -0.09703258 0.23665594
0001e0 4c e1 12 3d e4 a8 a8 bd 4a 35 8d 3e 25 fa 08 bd
       0.03585939 -0.08235338 0.2757972 -0.03344168
0001f0 83 13 5d bd e5 17 aa bc 0a ff 00 3e 4e 73 0b 3e
       -0.053973686 -0.020763347 0.1259729 0.13618204

conv5_1.weight f4 [1, 128]
000000 b1 6e 22 bb 41 7f 37 3d a3 33 40 be 8d d6 2f 3e
       -0.0024785216 0.044799093 -0.18769698 0.17171688
000010 54 ac 94 bc 7b a0 81 3e ff 76 cf bd 99 d5 48 be
       -0.018148579 0.2531775 -0.101301186 -0.19612731
000020 02 68 35 be 0e e4 21 3e af 9f 58 bc 44 bf 94 3c
       -0.17715457 0.15809652 -0.013221665 0.018157609
000030 4a 86 49 3c 68 65 e9 bd bd fd 63 bb 15 22 16 be
       0.012300083 -0.11396295 -0.003478869 -0.14661439
000040 c2 38 bb bc 0c 1d cc bd 99 96 51 3c 95 3c 2b 3d
       -0.022854213 -0.09966478 0.012792253 0.041805822
000050 57 02 eb bd b5 c8 76 bd fb 5a da bd 59 df ae bc
       -0.11475056 -0.060250003 -0.106618844 -0.021346735
000060 b2 c9 01 be 82 67 1f be 80 73 13 3e 9e 97 0d 3e
       -0.12674597 -0.15566829 0.14399529 0.13827369
000070 79 a5 f6 bc 09 9d 1c 3e 1a 21 03 3e 36 1b 92 3b
       -0.0301082 0.15294279 0.12805596 0.00445881
000080 28 77 55 be d3 ad a5 bd 72 1d 02 3e 7b 08 be 3d
       -0.20846236 -0.08089795 0.12706545 0.09278961
000090 16 7b 91 3d 0c 74 16 be 43 36 07 3e 6e 2a 86 bd
       0.07103555 -0.14692706 0.13204293 -0.065510616
0000a0 81 b6 b3 bd 04 fa d4 bd 21 62 cb 3d 8d 8e ce bc
       -0.08775044 -0.10399249 0.09930826 -0.025214458
0000b0 d2 32 b8 3e 0d c6 ba bd 85 7c ca 3d fb af 01 be
       0.35976273 -0.091198064 0.098870315 -0.12664787
0000c0 61 1a 15 3d f2 d5 1c 3d 34 b2 a7 bc 5f 15 85 3c
       0.03640211 0.03828997 -0.020470716 0.016245542
0000d0 ad ef 17 be 43 f9 5f 3e f3 0b 09 bd 6b 4c cf bd
       -0.14837523 0.2187243 -0.03345866 -0.101219974
0000e0 7e b1 da bd 66 ff 90 3e 37 30 56 bd 1c 1b a1 3d
       -0.10678385 0.28319854 -0.052292075 0.07866499
0000f0 3a 59 2e 3e 72 21 39 bd 21 e7 90 3e 61 c4 58 3e
       0.17026225 -0.04519791 0.28301337 0.21168663
000100 4c 6d 34 be d6 bd ed 3d 59 53 aa bd b0 05 c3 3c
       -0.17619818 0.11608474 -0.083166786 0.023806423
000110 66 53 15 3e 56 81 de 3d 97 29 bc be 6b 20 8a 3e
       0.14582595 0.108645126 -0.3675048 0.26977858
000120 b5 9d 1b be bf f4 3c bd 12 26 6b be ba 50 ca 3d
       -0.15196879 -0.046131846 -0.22963741 0.098786786
000130 62 62 45 3e 0f 26 f4 bd 8b 73 99 bc 61 f4 be bc
       0.19275811 -0.119213216 -0.018731853 -0.023309888
000140 a9 65 28 be 27 29 54 be 32 6e 1b be 4c 8b 55 bd
       -0.1644503 -0.20718823 -0.15178755 -0.052134797
000150 fd 77 73 be 70 cd 26 3d 4b d8 93 bd 1d 30 21 be
       -0.2377624 0.040723264 -0.07218989 -0.1574101
000160 68 79 17 3e c8 91 e3 bd 2f a6 7c 3a 59 ad 53 be
       0.14792407 -0.1111179 0.00096378004 -0.20671596
000170 c6 a8 53 be 51 39 c5 3c fc af cb 3d ba 53 20 be
       -0.2066985 0.024075182 0.09945676 -0.15656939
000180 3b f8 47 3d 01 4e 61 be 45 bc 05 be 4a 26 c3 3e
       0.048820715 -0.22002412 -0.130601 0.3811515
000190 2c f0 c5 bd 87 d8 47 3c ea 0d d3 3c 94 9d b6 3d
       -0.0966495 0.01219762 0.02576347 0.089167744
0001a0 4e 60 d0 bd 6d 0c 51 bd ec ef 5b bc 16 32 e2 3a
       -0.10174619 -0.05103724 -0.013423901 0.0017257358
0001b0 ab ef a2 bc 78 91 44 be da e1 21 be 70 27 bb 3c
       -0.019889673 -0.19196117 -0.15808812 0.022845954
0001c0 f4 fd bd 3c 90 0e 1d 3e 25 18 39 bd f8 ca b1 bd
       0.023192383 0.15337586 -0.04518904 -0.08681291
0001d0 12 0b b9 bc 67 42 05 be ed c8 02 be de a7 5b 3e
       -0.022588287 -0.13013612 -0.1277196 0.21450755
0001e0 5d 3e d6 bd 9f 75 e2 3c 4c 8d 9e bd f9 0b 9b be
       -0.104611136 0.027643977 -0.07741794 -0.30282572
0001f0 76 f2 2d be be d3 e3 bd 83 b8 92 be 1b 93 49 3e
       -0.16987023 -0.11124371 -0.28656396 0.19685023

conv5_2.weight f4 [4, 128]
000000 47 26 9e bd 66 eb 56 3c 12 35 d8 b8 ac bb ee 3c
       -0.077221446 0.013117647 -0.00010309568 0.029142223
000010 48 bf f0 bd 6a d9 32 bc 3c 75 be ba b8 3b 0d 3c
       -0.11755234 -0.010916093 -0.0014530788 0.008620195
000020 d3 fb ff 3a f4 20 87 3c 34 49 ab bd e4 d6 69 3d
       0.0019530006 0.016495205 -0.08363572 0.0570897
000030 eb 74 7f 3d 15 af 26 be 7a 7a 70 3d d8 46 d1 bc
       0.06236736 -0.16277726 0.058710553 -0.025546476
000040 c3 3e 8a 3d 4c 4a 90 bc 07 a0 e8 bd cc ea 6f 3e
       0.06750252 -0.017613553 -0.11358648 0.23429412
000050 9f f9 7a bb 74 69 f5 bc 14 ac dc 3d b7 4c 05 3d
       -0.0038295758 -0.02995751 0.10775009 0.032543864
000060 d9 de 42 3d 7b 0d 91 3b e2 23 37 3b e1 7e 16 3d
       0.047575805 0.004426656 0.0027944972 0.036742095
000070 e7 06 bb bc 7f 6d 15 bc d5 ca 8c 3d e8 76 71 3d
       -0.02283044 -0.009120344 0.06874625 0.05895129
000080 47 72 bd bb 8b 7b 4e bc f1 c6 bf bc e8 f9 cf bc
       -0.005781445 -0.012602697 -0.023410292 -0.02538772
000090 3f 2b 76 3c 49 a3 9d bc 31 f8 2a bc f0 24 b9 3d
       0.015024959 -0.0192429 -0.01043515 0.090402484
0000a0 b1 42 1b bc e9 b3 b4 3d 1b 22 92 3c 97 f1 b1 bd
       -0.00947635 0.08823378 0.017838528 -0.08688658
0000b0 ae 35 19 3c e3 2f 52 3d 54 ac d7 bd ae 0a a1 bc
       0.009351177 0.0513152 -0.10530916 -0.019658413
0000c0 2e 27 f4 3c 41 73 d4 3c 4c 21 90 ba 32 0c 96 bc
       0.029803839 0.025933864 -0.0010996251 -0.018316362
0000d0 94 a2 05 bd b2 3a 07 bc c1 73 6f 3d ed 2d a8 3b
       -0.03262575 -0.00825374 0.05846 0.005132428
0000e0 f9 4d af 3d 40 8c 98 bc 1a 93 a7 3d 79 eb 61 3e
       0.08559794 -0.018621564 0.08182354 0.22062482
0000f0 da 1e a1 3c d6 28 ab 3c 5e 49 a8 3b 7c b9 74 bc
       0.019668031 0.020893496 0.005135699 -0.014936801
000100 6e 24 54 3c 34 72 73 3d 05 64 cf bb bc b4 78 bd
       0.012948139 0.059435084 -0.006329062 -0.060719237
000110 97 9d 8b 3b 21 73 82 bd 93 e7 5f bc b0 98 13 3c
       0.0042607295 -0.06369615 -0.013666051 0.0090085715
000120 bb d4 9f bc 0a 58 ce bc 4d 0c 7b 3d 6a a1 31 bd
       -0.019510617 -0.025188465 0.061291028 -0.043366827
000130 ca bd a1 3b 16 a3 87 bc c4 7b ca bc 0d 17 29 bd
       0.0049359547 -0.016557258 -0.02471722 -0.04128175
000140 89 42 ed 3b 31 52 7b bc f5 62 f4 3c 82 77 52 3d
       0.0072405976 -0.01533942 0.029832343 0.051383503
000150 a5 be 07 3d 09 22 2b bd 8f 53 05 be 48 93 7e 38
       0.033140797 -0.041780505 -0.13020156 6.0695485e-05
000160 18 38 43 bc 44 29 5e bc ad 11 b6 3d c1 97 5f bc
       -0.011915229 -0.013559643 0.0889009 -0.013647021
000170 d8 55 a5 bc e7 3f e8 3c 04 82 03 bc 0e de 01 3d
       -0.020182535 0.028350784 -0.008026604 0.03170591
000180 b5 93 9e 3c d6 fe 6e 3a b2 d5 36 bd 27 1e 37 3c
       0.019357542 0.0009116953 -0.04463739 0.0111766225
000190 ec f0 42 bc 42 c2 4f bc bb 4d 1f 3e af bb ac 3c
       -0.011898261 -0.012680592 0.15556996 0.021085588
0001a0 49 11 51 bc 9c af 10 bd 81 0e 43 3c 6d 04 25 be
       -0.012760469 -0.035323724 0.0119053135 -0.1611497
0001b0 bf 44 a8 3d 5d 03 fa 3b 2d 45 b6 bc 22 62 a3 bc
       0.08216237 0.0076297955 -0.022249782 -0.019944254
0001c0 06 a7 27 bd af 86 84 3d 7a 67 5b be 9d 40 c3 3d
       -0.04093077 0.06471001 -0.21426192 0.095338084
0001d0 ca ed d1 3c e4 d0 14 3d bb 1d f0 3c ef 85 36 bc
       0.025626082 0.036332026 0.029311052 -0.011140331
0001e0 d9 76 bd bc 45 6a 13 3d a2 f2 af 3c ca a9 4f 3c
       -0.02312796 0.03599002 0.021478001 0.012674758
0001f0 4f ff 85 3c 30 90 b2 3b 95 22 5a bc b7 1a e7 3c
       0.016357092 0.0054493174 -0.013313909 0.02821098
000200 0d ec 96 bc b0 09 29 bd fd 5b a2 3d 80 35 e9 3c
       -0.018423105 -0.041269004 0.079277016 0.028467894
000210 d5 dd ea bc 28 3f bf bc f3 46 f0 bc 29 cd 52 bd
       -0.02867023 -0.023345545 -0.029330706 -0.051465187
000220 c1 64 69 bc f0 a8 af ba 72 88 6a bd 8e 8a d0 bd
       -0.014245213 -0.0013401788 -0.05725903 -0.10182677
000230 99 75 15 be 24 45 22 be ca d0 87 bd 55 fa 56 3c
       -0.14595641 -0.15846688 -0.0663162 0.013121207
000240 da 94 dc 3c f9 e0 a8 bc fd 26 6f be b4 9a 1c 3e
       0.026926447 -0.020615088 -0.23354717 0.1529339
000250 38 ae ef bc 2e 48 c8 bc f4 ee 07 3e 6c 3b 0e bb
       -0.029257879 -0.02444848 0.13274747 -0.0021702899
000260 fc ae ca bd 64 ce 8a 3b 0e 04 66 3d 65 7d df 3c
       -0.09896657 0.0042360295 0.05615621 0.027281472
000270 12 7a 5e 3c e6 e0 a1 3c 86 22 a3 3d 4f 50 76 bc
       0.0135789085 0.01976056 0.07965569 -0.0150337955
000280 19 1f 08 3d bb 0d 7e 3d 9b 72 14 be f4 9c 9f 3d
       0.033232782 0.062024813 -0.14496844 0.07793608
000290 98 b2 9f bd 58 cf 19 3d d3 f4 06 bd 1b f0 9e bb
       -0.07797736 0.037551254 -0.032948326 -0.0048504
0002a0 72 c9 4f 3b 1e 50 c9 3c 40 9b 04 3d 4f 73 06 3d
       0.0031705764 0.024574336 0.03237462 0.03282481
0002b0 43 ec cd 3c 1d ad ea bc f1 de 53 3e a5 0d ec bd
       0.025137072 -0.028647 0.20690514 -0.1152604
0002c0 a3 14 e0 bd 61 0a 3b bd 93 25 bc bd 50 3a 2e bd
       -0.10941436 -0.045664195 -0.09186854 -0.04253608
0002d0 0b 65 a8 bc 4e 90 a8 3c 83 e5 87 3d 63 95 88 3c
       -0.020555994 0.020576622 0.06635573 0.016672796
0002e0 24 a4 72 be 8e 13 e1 bb 24 fd 55 3c fb 22 3f be
       -0.23695427 -0.006868786 0.013060842 -0.18665688
0002f0 a1 9b 00 3c 5a 59 51 3e eb d8 21 3b fb 0c 13 3d
       0.007849605 0.20444241 0.0024695944 0.03590105
000300 50 36 db 3d 8c 79 ad 3c e1 ff d3 bc 10 55 06 3e
       0.10703719 0.021176122 -0.025878849 0.13118386
000310 de f0 ee 3a 66 40 76 3b 1d 7e 04 3c f4 b7 42 3d
       0.0018229743 0.0037575006 0.008086708 0.047538713
000320 4a 84 36 bd 90 85 21 bd 84 99 da 3b ce d2 81 bd
       -0.044559754 -0.039434016 0.0066711325 -0.06339036
000330 18 60 77 3c 18 f2 2e 3c e1 43 74 bb d5 61 03 3e
       0.015098594 0.010677837 -0.0037271904 0.12830289
000340 f3 2d bd 3c d8 db f3 3d b6 a0 92 3b c6 50 c9 3d
       0.0230932 0.11907166 0.0044747246 0.098298594
000350 4a 3b 7d 3c 9d da b9 3c c0 a4 a1 bc 67 09 8c bb
       0.01545603 0.02268725 -0.01973188 -0.004273582
000360 57 bc ee bb 22 7f 69 bd 4a b6 80 bc 2f a6 32 3d
       -0.0072856355 -0.05700601 -0.015711922 0.043615516
000370 da 69 33 bc 75 b8 5e 3d 17 fe ee bc 44 39 57 be
       -0.01095053 0.05437513 -0.029173894 -0.21017939
000380 1f 9f d2 bd db f9 62 bc 63 b5 f9 bd 05 b6 32 bd
       -0.10284256 -0.0138535155 -0.121928 -0.04363062
000390 86 bf 5d bd 68 47 4f 3e d7 3a 4b 3e 08 90 85 39
       -0.05413773 0.20242083 0.19846664 0.00025475048
0003a0 ae f8 c6 3d 82 a9 d3 bd 7e 38 87 3d c0 8f f1 bd
       0.09715401 -0.103350654 0.06602572 -0.11794996
0003b0 f8 53 81 b9 58 4c be 3c 9f cc 1a 3d 24 15 de bb
       -0.0002466736 0.023229763 0.037792798 -0.0067774225
0003c0 ce e4 b5 bd ad aa 7c 3c e2 16 f4 3d f8 7e ed 3d
       -0.08881532 0.015421552 0.11918427 0.11596483
0003d0 ee 70 9a 3d 51 6a a3 bd 0b b2 1e bd 9e 1e 9b 3c
       0.07541071 -0.079792626 -0.038744014 0.018935498
0003e0 27 5f 17 3d 24 f3 61 3d dc ac d8 bc 8f 60 cb 3c
       0.03695598 0.055163518 -0.026449613 0.024826316
0003f0 b6 e1 1c 3b e6 c0 0e 3e 58 4b 36 bd 43 20 68 bd
       0.0023938245 0.13940772 -0.044505447 -0.056671392

conv5_2.bias f4 [4]
000000 5a 65 ae 3d 22 c7 81 bd 95 e1 4d bd da 89 fc 3c
       0.08515425 -0.0633681 -0.05026396 0.030827451
